save_model/best_train_2.pth (torch, 345551 bytes, 50 tensors)

encoder_layer.self_attn.in_proj_weight f8 [6, 2]
000000 00 00 00 40 20 d3 d9 3f 00 00 00 60 93 a8 e8 3f
       0.403511106967926 0.7705780863761902
000010 00 00 00 00 0f f7 bb 3f 00 00 00 40 27 91 d2 3f
       0.10923856496810913 0.29010945558547974
000020 00 00 00 00 f3 fd c1 bf 00 00 00 60 14 b0 e7 bf
       -0.14056241512298584 -0.7402440905570984
000030 00 00 00 c0 c5 bf e9 bf 00 00 00 80 e6 5b c9 3f
       -0.8046597242355347 0.19811707735061646
000040 00 00 00 00 64 b7 d1 bf 00 00 00 60 ad b6 e9 3f
       -0.27681827545166016 0.8035494685173035
000050 00 00 00 00 04 c8 dc bf 00 00 00 80 c0 f0 cf bf
       -0.4497079849243164 -0.24953466653823853

encoder_layer.self_attn.in_proj_bias f8 [6]
000000 00 00 00 00 00 00 00 00 00 00 00 00 00 00 00 00
       0.0 0.0
000010 00 00 00 00 00 00 00 00 00 00 00 00 00 00 00 00
       0.0 0.0
000020 00 00 00 00 00 00 00 00 00 00 00 00 00 00 00 00
       0.0 0.0

encoder_layer.self_attn.out_proj.weight f8 [2, 2]
000000 00 00 00 80 0c ca e1 bf 00 00 00 c0 15 f9 d4 bf
       -0.5559141635894775 -0.32770293951034546
000010 00 00 00 80 ae 85 c1 bf 00 00 00 00 38 d7 ad bf
       -0.1368921399116516 -0.05828261375427246

encoder_layer.self_attn.out_proj.bias f8 [2]
000000 00 00 00 00 00 00 00 00 00 00 00 00 00 00 00 00
       0.0 0.0

encoder_layer.linear1.weight f8 [2048, 2]
000000 00 00 00 00 a0 df c5 bf 00 00 00 80 50 85 c5 bf
       -0.17088699340820312 -0.16813093423843384
000010 00 00 00 00 c0 93 64 3f 00 00 00 60 c5 b7 e5 3f
       0.0025118589401245117 0.6786829829216003
000020 00 00 00 80 c1 46 d2 3f 00 00 00 00 55 82 b1 3f
       0.28556859493255615 0.06839495897293091
000030 00 00 00 60 e2 c1 db bf 00 00 00 00 fd 72 b0 3f
       -0.4337087571620941 0.06425458192825317
000040 00 00 00 60 24 b4 d4 bf 00 00 00 40 ae df d5 bf
       -0.3234950006008148 -0.34177738428115845
000050 00 00 00 c0 2d 10 d4 3f 00 00 00 20 05 74 e3 3f
       0.3134874701499939 0.6079126000404358
000060 00 00 00 60 01 ac e4 3f 00 00 00 60 c6 4f e2 3f
       0.6459967494010925 0.5722381472587585
000070 00 00 00 40 3e f3 d7 3f 00 00 00 80 7f 4e ca 3f
       0.3742213845252991 0.20552057027816772
000080 00 00 00 40 e9 44 cb bf 00 00 00 00 15 00 d7 bf
       -0.21304050087928772 -0.35938000679016113
000090 00 00 00 00 4e 24 d0 3f 00 00 00 e0 fe 67 e2 3f
       0.2522158622741699 0.575194776058197
0000a0 00 00 00 80 54 b3 c8 3f 00 00 00 c0 3c 46 de 3f
       0.19297271966934204 0.4730369448661804
0000b0 00 00 00 e0 c3 fb dc bf 00 00 00 00 51 02 ba bf
       -0.4528665244579315 -0.1015978455543518
0000c0 00 00 00 00 f1 c0 c7 bf 00 00 00 40 40 56 dd 3f
       -0.18557560443878174 0.4583893418312073
0000d0 00 00 00 00 20 01 9a bf 00 00 00 00 0d da bb bf
       -0.025394916534423828 -0.10879594087600708
0000e0 00 00 00 40 19 9e e2 bf 00 00 00 80 8b 8d d1 3f
       -0.5817991495132446 0.27426421642303467
0000f0 00 00 00 c0 28 00 dd 3f 00 00 00 60 c7 d5 e5 3f
       0.4531347155570984 0.6823460459709167
000100 00 00 00 60 c3 26 d2 bf 00 00 00 00 00 b9 38 3f
       -0.28361591696739197 0.00037723779678344727
000110 00 00 00 40 31 5c db bf 00 00 00 c0 74 26 d5 3f
       -0.42750197649002075 0.3304721713066101
000120 00 00 00 c0 f4 9c dd 3f 00 00 00 20 18 00 db bf
       0.4627048373222351 -0.4218807518482208
000130 00 00 00 80 7a 28 c1 bf 00 00 00 00 b5 ad c8 bf
       -0.13404780626296997 -0.1928011178970337
000140 00 00 00 00 62 2d c5 bf 00 00 00 00 1a 45 a4 3f
       -0.16544747352600098 0.03958970308303833
000150 00 00 00 c0 21 1f e1 bf 00 00 00 80 98 6e cd bf
       -0.5350502729415894 -0.2299376130104065
000160 00 00 00 c0 ca 75 da 3f 00 00 00 40 90 5c e5 bf
       0.41343945264816284 -0.6675492525100708
000170 00 00 00 40 48 79 e0 bf 00 00 00 80 c2 b4 c6 bf
       -0.5148049592971802 -0.17739135026931763
000180 00 00 00 40 85 e1 de 3f 00 00 00 80 9d cb e2 bf
       0.4825146794319153 -0.587355375289917
000190 00 00 00 20 65 6b e5 3f 00 00 00 e0 48 ac e0 3f
       0.6693597435951233 0.521030843257904
0001a0 00 00 00 00 88 35 c1 3f 00 00 00 20 49 e3 dc bf
       0.1344461441040039 -0.4513724148273468
0001b0 00 00 00 a0 e8 2a e0 bf 00 00 00 80 d9 bd c4 3f
       -0.505237877368927 0.1620437502861023
0001c0 00 00 00 80 af f6 c1 bf 00 00 00 20 7f d0 e1 3f
       -0.14034074544906616 0.5567012429237366
0001d0 00 00 00 c0 a2 b7 d4 3f 00 00 00 60 17 5c e4 3f
       0.3237082362174988 0.636241614818573
0001e0 00 00 00 80 58 da d1 bf 00 00 00 80 e1 fb ce 3f
       -0.2789517641067505 0.2420617938041687
0001f0 00 00 00 60 17 08 d3 bf 00 00 00 e0 6d a3 e0 3f
       -0.2973688542842865 0.5199498534202576
000200 00 00 00 00 e0 9c 85 3f 00 00 00 e0 97 31 e1 3f
       0.010553121566772461 0.5373038649559021
000210 00 00 00 a0 c7 5e e5 3f 00 00 00 a0 15 83 d0 bf
       0.6678197979927063 -0.25800076127052307
000220 00 00 00 00 0c d3 96 bf 00 00 00 00 ff df c6 bf
       -0.0222894549369812 -0.17871081829071045
000230 00 00 00 80 79 2e da bf 00 00 00 00 2f d9 bf 3f
       -0.40908658504486084 0.12440770864486694
000240 00 00 00 00 30 55 81 3f 00 00 00 80 9d 89 c2 3f
       0.008463263511657715 0.14482468366622925
000250 00 00 00 20 1a ca e5 bf 00 00 00 00 31 1e c9 bf
       -0.6809206604957581 -0.196233868598938
000260 00 00 00 00 c4 e3 b9 3f 00 00 00 00 e8 2f 99 bf
       0.10113167762756348 -0.024596810340881348
000270 00 00 00 00 3e a9 b1 3f 00 00 00 40 46 ad cf bf
       0.06898868083953857 -0.24747541546821594
000280 00 00 00 80 b8 a9 dd bf 00 00 00 00 b1 39 da bf
       -0.46348392963409424 -0.409771203994751
000290 00 00 00 c0 3d 4e dd bf 00 00 00 00 4d 41 d8 bf
       -0.4579004645347595 -0.3789856433868408
0002a0 00 00 00 e0 ad 7d e5 3f 00 00 00 c0 79 7d d6 3f
       0.6715916991233826 0.3514084219932556
0002b0 00 00 00 a0 79 d0 e3 3f 00 00 00 60 0b b9 e3 3f
       0.6191986203193665 0.6163384318351746
0002c0 00 00 00 c0 91 d8 d9 bf 00 00 00 c0 14 6b dd 3f
       -0.40384334325790405 0.45966070890426636
0002d0 00 00 00 80 82 46 c7 3f 00 00 00 a0 43 81 e3 3f
       0.18183928728103638 0.6095293164253235
0002e0 00 00 00 c0 6e c4 d8 3f 00 00 00 20 c5 1c d3 bf
       0.3869892954826355 -0.2986309826374054
0002f0 00 00 00 00 86 86 bf 3f 00 00 00 e0 50 ce e1 3f
       0.1231464147567749 0.5564350485801697
000300 00 00 00 00 2e d0 e0 bf 00 00 00 e0 11 ed e0 3f
       -0.5254125595092773 0.5289391875267029
000310 00 00 00 00 08 e3 9b bf 00 00 00 80 37 d8 cc 3f
       -0.027233242988586426 0.22534841299057007
000320 00 00 00 00 97 f1 c0 3f 00 00 00 c0 51 7a dc bf
       0.13237273693084717 -0.44496577978134155
000330 00 00 00 60 66 b3 d7 bf 00 00 00 e0 76 39 e0 bf
       -0.3703247010707855 -0.5070146918296814
000340 00 00 00 a0 ca 69 d6 bf 00 00 00 00 70 7c db bf
       -0.35020700097084045 -0.4294700622558594
000350 00 00 00 a0 09 2c e4 3f 00 00 00 40 69 64 e6 bf
       0.6303756833076477 -0.6997572183609009
000360 00 00 00 c0 e2 0c e6 bf 00 00 00 80 70 7d d0 3f
       -0.6890729665756226 0.2576562166213989
000370 00 00 00 80 cb a9 c6 bf 00 00 00 00 b0 38 b0 3f
       -0.17705672979354858 0.06336498260498047
000380 00 00 00 e0 1c 0f e5 3f 00 00 00 40 6e e6 db 3f
       0.6580948233604431 0.43593937158584595
000390 00 00 00 00 d0 5b db bf 00 00 00 a0 f9 8f e0 bf
       -0.4274787902832031 -0.5175750851631165
0003a0 00 00 00 40 05 94 d5 bf 00 00 00 a0 2d fc e1 3f
       -0.3371594548225403 0.562033474445343
0003b0 00 00 00 40 c1 f2 d5 3f 00 00 00 e0 eb 27 d6 bf
       0.3429415822029114 -0.3461866080760956
0003c0 00 00 00 60 9b 2d d4 bf 00 00 00 80 9c 72 d1 bf
       -0.3152836263179779 -0.2726203203201294
0003d0 00 00 00 e0 02 3d d9 bf 00 00 00 00 a3 87 c9 bf
       -0.3943488299846649 -0.19945180416107178
0003e0 00 00 00 20 70 eb e4 bf 00 00 00 80 83 fb c2 3f
       -0.6537399888038635 0.14830058813095093
0003f0 00 00 00 e0 44 60 e5 3f 00 00 00 00 1a 4e b4 bf
       0.6680015921592712 -0.07931673526763916
000400 00 00 00 c0 a8 99 e2 bf 00 00 00 40 d3 42 e2 bf
       -0.5812572240829468 -0.5706573724746704
000410 00 00 00 00 a4 eb c4 3f 00 00 00 80 96 cc cb bf
       0.16344118118286133 -0.2171810269355774
000420 00 00 00 c0 1b 56 df bf 00 00 00 80 83 c5 ca bf
       -0.48963063955307007 -0.20915263891220093
000430 00 00 00 c0 18 e2 e5 bf 00 00 00 00 d4 ae 9b 3f
       -0.6838496923446655 0.027034103870391846
000440 00 00 00 e0 31 24 e1 bf 00 00 00 00 dc 30 ce bf
       -0.5356683135032654 -0.23586606979370117
000450 00 00 00 00 18 cb c1 bf 00 00 00 00 e0 30 87 3f
       -0.13901042938232422 0.011323690414428711
000460 00 00 00 00 df 32 d8 bf 00 00 00 00 3c f1 b9 bf
       -0.37810492515563965 -0.10133719444274902
000470 00 00 00 60 5e 38 d1 bf 00 00 00 40 b9 48 d7 bf
       -0.2690654695034027 -0.36381369829177856
000480 00 00 00 80 03 98 e6 bf 00 00 00 00 80 f9 7d 3f
       -0.7060563564300537 0.007318019866943359
000490 00 00 00 00 92 ba a9 bf 00 00 00 20 67 1f e4 bf
       -0.050251543521881104 -0.6288333535194397
0004a0 00 00 00 00 1e af c6 3f 00 00 00 a0 dd a7 e1 bf
       0.17721915245056152 -0.5517414212226868
0004b0 00 00 00 00 9e af af bf 00 00 00 00 09 1d c5 bf
       -0.061886727809906006 -0.16494858264923096
0004c0 00 00 00 e0 82 37 d7 bf 00 00 00 60 89 36 e1 bf
       -0.3627631366252899 -0.5379073023796082
0004d0 00 00 00 80 f3 bb e2 bf 00 00 00 e0 7e bd e1 bf
       -0.5854432582855225 -0.554381787776947
0004e0 00 00 00 00 35 8b e5 bf 00 00 00 00 54 af b3 3f
       -0.6732430458068848 0.07689404487609863
0004f0 00 00 00 80 2a 7b e0 bf 00 00 00 80 9b b4 c6 3f
       -0.5150349140167236 0.17738670110702515
000500 00 00 00 00 4c ba b7 3f 00 00 00 00 02 92 c0 3f
       0.09268641471862793 0.1294558048248291
000510 00 00 00 40 b0 d0 e0 bf 00 00 00 a0 c0 bf e2 bf
       -0.5254746675491333 -0.5859072804450989
000520 00 00 00 00 34 d9 b6 3f 00 00 00 60 da dd e1 3f
       0.08925175666809082 0.5583316683769226
000530 00 00 00 c0 db 9f db 3f 00 00 00 c0 64 ce de bf
       0.43163198232650757 -0.4813472628593445
000540 00 00 00 00 27 68 d1 3f 00 00 00 80 06 aa c4 3f
       0.27198195457458496 0.16143876314163208
000550 00 00 00 60 74 cb de bf 00 00 00 20 ae a4 e2 bf
       -0.48116788268089294 -0.5826025605201721
000560 00 00 00 40 d5 2d e3 bf 00 00 00 20 da 86 d1 bf
       -0.5993448495864868 -0.27385571599006653
000570 00 00 00 80 dd 6e e1 bf 00 00 00 00 e0 1b 94 3f
       -0.544783353805542 0.019637584686279297
000580 00 00 00 40 b4 2e cb bf 00 00 00 c0 f0 04 d6 bf
       -0.21236279606819153 -0.3440515398979187
000590 00 00 00 e0 b7 93 dc bf 00 00 00 60 bb e6 e5 3f
       -0.4465160071849823 0.6844155192375183
0005a0 00 00 00 40 26 dc d1 3f 00 00 00 c0 06 9e d6 bf
       0.27906185388565063 -0.35339516401290894
0005b0 00 00 00 80 74 9f c5 bf 00 00 00 40 06 6e e2 bf
       -0.16892868280410767 -0.5759307146072388
0005c0 00 00 00 a0 bf 94 d1 bf 00 00 00 80 56 e8 dc bf
       -0.27470389008522034 -0.4516807794570923
0005d0 00 00 00 80 c0 fd d0 3f 00 00 00 00 2b 43 b5 bf
       0.26548779010772705 -0.08305615186691284
0005e0 00 00 00 80 c7 68 e6 bf 00 00 00 40 12 d1 df 3f
       -0.7002904415130615 0.4971356987953186
0005f0 00 00 00 40 41 6a e1 bf 00 00 00 60 4f 4e e2 3f
       -0.5442205667495728 0.5720593333244324
000600 00 00 00 e0 f1 68 d1 bf 00 00 00 40 4f bf d3 3f
       -0.2720303237438202 0.3085516095161438
000610 00 00 00 20 f7 1c e3 3f 00 00 00 c0 40 7b d5 3f
       0.597285807132721 0.3356477618217468
000620 00 00 00 00 8b 1f b2 3f 00 00 00 00 7a 50 d1 bf
       0.07079380750656128 -0.2705368995666504
000630 00 00 00 20 51 1f e2 3f 00 00 00 80 8e a1 c4 bf
       0.5663228631019592 -0.161180317401886
000640 00 00 00 40 ab 78 e2 bf 00 00 00 40 ac d4 d8 3f
       -0.5772300958633423 0.38798052072525024
000650 00 00 00 00 95 8b c2 3f 00 00 00 20 e8 d5 e1 3f
       0.14488470554351807 0.5573616623878479
000660 00 00 00 80 b8 2e c1 3f 00 00 00 60 99 80 e5 3f
       0.13423830270767212 0.6719481348991394
000670 00 00 00 80 b2 51 c2 3f 00 00 00 80 a1 3f c5 3f
       0.14311820268630981 0.16600435972213745
000680 00 00 00 e0 b9 5f e5 3f 00 00 00 40 44 88 d2 bf
       0.667935311794281 -0.2895670533180237
000690 00 00 00 20 23 e9 d7 bf 00 00 00 80 42 29 e1 bf
       -0.37360456585884094 -0.5362865924835205
0006a0 00 00 00 20 aa ad e0 bf 00 00 00 c0 2e 65 db 3f
       -0.5211992859840393 0.428050696849823
0006b0 00 00 00 40 b7 96 db 3f 00 00 00 80 8a 51 de bf
       0.43107396364212036 -0.47372686862945557
0006c0 00 00 00 00 bc 9f 93 bf 00 00 00 40 a1 f2 d9 bf
       -0.01916402578353882 -0.4054339528083801
0006d0 00 00 00 40 1f 32 e0 bf 00 00 00 40 f5 aa dc 3f
       -0.5061184167861938 0.44793444871902466
0006e0 00 00 00 a0 e1 87 e2 bf 00 00 00 80 6f 77 c6 bf
       -0.5790870785713196 -0.1755198836326599
0006f0 00 00 00 00 b6 0a af bf 00 00 00 60 14 9d e5 bf
       -0.06062859296798706 -0.6754247546195984
000700 00 00 00 00 30 9d c3 3f 00 00 00 00 76 8d e2 bf
       0.15323448181152344 -0.579768180847168
000710 00 00 00 40 89 37 d1 bf 00 00 00 e0 ca 3b e2 3f
       -0.2690146565437317 0.5697988867759705
000720 00 00 00 00 ff 3f b9 3f 00 00 00 00 f0 08 ca bf
       0.09863275289535522 -0.2033977508544922
000730 00 00 00 a0 6e 17 d2 bf 00 00 00 00 52 ee d6 bf
       -0.2826801836490631 -0.35829591751098633
000740 00 00 00 a0 e1 18 e3 3f 00 00 00 80 29 2a c4 3f
       0.5967872738838196 0.15753668546676636
000750 00 00 00 00 17 1c c0 3f 00 00 00 c0 4f 02 cd bf
       0.12585723400115967 -0.22663304209709167
000760 00 00 00 20 f9 6a e3 3f 00 00 00 00 a2 94 aa bf
       0.6068082451820374 -0.05191522836685181
000770 00 00 00 40 3d d5 d8 3f 00 00 00 c0 3b 04 d1 3f
       0.38801509141921997 0.2658833861351013
000780 00 00 00 60 22 8e e0 bf 00 00 00 60 a5 ca d2 bf
       -0.5173503756523132 -0.2936185300350189
000790 00 00 00 00 30 b9 c2 3f 00 00 00 40 4d 2b ce bf
       0.14627647399902344 -0.2356964647769928
0007a0 00 00 00 60 2f 98 e1 3f 00 00 00 40 e2 17 dd 3f
       0.5498272776603699 0.45458275079727173
0007b0 00 00 00 00 80 e7 a3 bf 00 00 00 00 32 3b d4 bf
       -0.038875579833984375 -0.3161129951477051
0007c0 00 00 00 40 b8 89 cd bf 00 00 00 e0 b1 a2 e2 3f
       -0.23076537251472473 0.5823602080345154
0007d0 00 00 00 80 70 9d e1 bf 00 00 00 00 a8 44 bc 3f
       -0.5504686832427979 0.11042261123657227
0007e0 00 00 00 e0 c6 5e e5 3f 00 00 00 c0 aa 23 da 3f
       0.6678194403648376 0.4084269404411316
0007f0 00 00 00 00 13 9d c3 3f 00 00 00 80 fc 88 c0 3f
       0.15323102474212646 0.12918049097061157

encoder_layer.linear1.bias f8 [2048]
000000 00 00 00 00 90 ea bc bf 00 00 00 a0 3e e1 dc bf
       -0.11295413970947266 -0.45124784111976624
000010 00 00 00 20 13 4f db bf 00 00 00 80 c1 56 df bf
       -0.4267013370990753 -0.48967015743255615
000020 00 00 00 20 d7 9e e5 3f 00 00 00 c0 9e bb db bf
       0.6756396889686584 -0.4333264231681824
000030 00 00 00 60 ce 99 e5 bf 00 00 00 c0 ef 00 d3 3f
       -0.6750251650810242 0.2969321608543396
000040 00 00 00 40 e3 f0 e3 bf 00 00 00 80 ce b5 ce bf
       -0.6231552362442017 -0.23992329835891724
000050 00 00 00 40 46 8f da 3f 00 00 00 40 1c 75 d7 3f
       0.4149947762489319 0.3665228486061096
000060 00 00 00 c0 2f 0e e5 bf 00 00 00 40 4b 65 e2 bf
       -0.6579817533493042 -0.5748649835586548
000070 00 00 00 40 0a 13 d3 3f 00 00 00 00 9f 90 b5 bf
       0.2980371117591858 -0.08423799276351929
000080 00 00 00 c0 8f 5f da 3f 00 00 00 c0 15 7a d9 3f
       0.41208261251449585 0.39807647466659546
000090 00 00 00 00 71 0b c9 3f 00 00 00 00 03 d1 b3 3f
       0.19566166400909424 0.07740801572799683
0000a0 00 00 00 40 28 fc ca bf 00 00 00 40 20 c1 da bf
       -0.21082022786140442 -0.418037474155426
0000b0 00 00 00 a0 6b fc d4 bf 00 00 00 80 1d 79 d2 3f
       -0.3279065191745758 0.2886422872543335
0000c0 00 00 00 20 12 1d e1 3f 00 00 00 00 99 48 bb bf
       0.5347986817359924 -0.10657650232315063
0000d0 00 00 00 80 6a 2e c5 3f 00 00 00 40 13 47 de bf
       0.16547900438308716 -0.4730880856513977
0000e0 00 00 00 60 13 2d e5 3f 00 00 00 40 37 2d cf bf
       0.6617524027824402 -0.24356737732887268
0000f0 00 00 00 00 c6 1a bf bf 00 00 00 c0 40 a7 dc 3f
       -0.12150228023529053 0.4477083086967468
000100 00 00 00 60 5d 91 d6 bf 00 00 00 00 45 bc b7 bf
       -0.3526223599910736 -0.0927165150642395
000110 00 00 00 80 c6 37 d2 3f 00 00 00 a0 44 18 e4 3f
       0.28465425968170166 0.6279624104499817
000120 00 00 00 00 fe 0a ad bf 00 00 00 80 a5 7c de bf
       -0.056724488735198975 -0.4763578176498413
000130 00 00 00 40 b9 1b de 3f 00 00 00 80 ac 25 c7 bf
       0.47044211626052856 -0.1808372139930725
000140 00 00 00 00 ee fb b3 bf 00 00 00 a0 c5 26 e1 bf
       -0.07806289196014404 -0.5359829068183899
000150 00 00 00 40 42 12 d3 3f 00 00 00 a0 7e 7f e4 bf
       0.2979894280433655 -0.6405633091926575
000160 00 00 00 00 3c 0f 96 3f 00 00 00 60 8d 7a e0 3f
       0.021542489528656006 0.514959990978241
000170 00 00 00 60 32 27 e6 3f 00 00 00 20 eb 51 e2 3f
       0.6922847628593445 0.5724998116493225
000180 00 00 00 c0 52 4b cf bf 00 00 00 c0 b3 06 d7 3f
       -0.24448618292808533 0.3597840666770935
000190 00 00 00 c0 d4 0b e4 bf 00 00 00 00 d2 f3 b8 bf
       -0.6264442205429077 -0.09747040271759033
0001a0 00 00 00 20 0b e0 e2 3f 00 00 00 60 7c ad e3 3f
       0.589849054813385 0.6149274706840515
0001b0 00 00 00 80 66 3b e5 bf 00 00 00 c0 2a 38 de 3f
       -0.6635010242462158 0.4721781611442566
0001c0 00 00 00 c0 3d 6f df bf 00 00 00 00 e7 68 e6 bf
       -0.4911646246910095 -0.7003054618835449
0001d0 00 00 00 80 49 d0 d0 bf 00 00 00 00 30 8b ae 3f
       -0.26271283626556396 0.05965566635131836
0001e0 00 00 00 a0 b0 0b e6 3f 00 00 00 40 2a 6e df 3f
       0.6889269948005676 0.49109894037246704
0001f0 00 00 00 80 8e 66 e4 bf 00 00 00 80 77 0f d5 bf
       -0.637519121170044 -0.32906901836395264
000200 00 00 00 00 d0 b2 c6 bf 00 00 00 c0 88 e4 d3 3f
       -0.17733192443847656 0.31082361936569214
000210 00 00 00 80 51 88 ca 3f 00 00 00 40 ef 7c d4 3f
       0.2072851061820984 0.32012540102005005
000220 00 00 00 80 35 79 e0 bf 00 00 00 00 9e 88 cb bf
       -0.5147960186004639 -0.21510672569274902
000230 00 00 00 80 89 72 c5 3f 00 00 00 00 b2 14 be 3f
       0.16755789518356323 0.11750328540802002
000240 00 00 00 40 7b 8b dc 3f 00 00 00 20 a6 ee db bf
       0.44601327180862427 -0.43644097447395325
000250 00 00 00 40 a5 9a db bf 00 00 00 00 0b 90 be 3f
       -0.43131381273269653 0.11938542127609253
000260 00 00 00 00 d0 18 91 bf 00 00 00 c0 c1 11 d6 bf
       -0.01669621467590332 -0.3448337912559509
000270 00 00 00 80 7f 3b cb bf 00 00 00 20 36 34 e4 3f
       -0.21275323629379272 0.6313734650611877
000280 00 00 00 c0 59 ee d3 3f 00 00 00 c0 64 14 da 3f
       0.31142276525497437 0.4074947237968445
000290 00 00 00 00 f2 b5 bf 3f 00 00 00 00 6d f8 b1 3f
       0.12387001514434814 0.07019692659378052
0002a0 00 00 00 40 1f a5 e0 bf 00 00 00 20 99 c6 e3 3f
       -0.5201565027236938 0.6179929375648499
0002b0 00 00 00 00 10 60 b3 3f 00 00 00 00 26 f1 c5 bf
       0.0756845474243164 -0.17142176628112793
0002c0 00 00 00 80 9a 81 c0 3f 00 00 00 e0 38 7b e1 3f
       0.1289551854133606 0.5462917685508728
0002d0 00 00 00 a0 e7 a2 e4 3f 00 00 00 40 a0 a9 d0 3f
       0.6448858380317688 0.260353147983551
0002e0 00 00 00 a0 39 3a e0 3f 00 00 00 a0 2c 99 e3 3f
       0.5071075558662415 0.6124480366706848
0002f0 00 00 00 20 ca 89 d0 bf 00 00 00 00 7e 0d cb 3f
       -0.2584100067615509 0.2113492488861084
000300 00 00 00 60 42 4e d3 bf 00 00 00 e0 bc 12 e0 bf
       -0.30165156722068787 -0.5022873282432556
000310 00 00 00 80 82 53 e1 bf 00 00 00 60 63 95 e1 3f
       -0.5414440631866455 0.5494858622550964
000320 00 00 00 40 bd 6b da 3f 00 00 00 a0 fe 3c e5 3f
       0.41282588243484497 0.6636956334114075
000330 00 00 00 e0 8e 64 d9 bf 00 00 00 00 d8 c7 c8 bf
       -0.39676257967948914 -0.19359874725341797
000340 00 00 00 00 b4 c9 a3 3f 00 00 00 20 52 b8 e0 3f
       0.038648247718811035 0.5225000977516174
000350 00 00 00 40 f7 13 da 3f 00 00 00 e0 fe 2a db bf
       0.40746861696243286 -0.4244992434978485
000360 00 00 00 00 40 dd 73 bf 00 00 00 60 f7 6e e6 3f
       -0.004849672317504883 0.7010456919670105
000370 00 00 00 e0 81 9b e5 3f 00 00 00 40 cc 1b e6 bf
       0.6752328276634216 -0.690893292427063
000380 00 00 00 60 a7 cd db bf 00 00 00 00 4e 68 dd bf
       -0.4344271123409271 -0.4594912528991699
000390 00 00 00 00 22 48 d2 3f 00 00 00 00 2e 92 bb 3f
       0.28565263748168945 0.10769927501678467
0003a0 00 00 00 c0 be a9 d1 3f 00 00 00 00 21 a9 ba bf
       0.2759854197502136 -0.10414320230484009
0003b0 00 00 00 c0 c2 93 d4 3f 00 00 00 00 2c 27 b5 bf
       0.32151859998703003 -0.08262896537780762
0003c0 00 00 00 80 35 3d d5 bf 00 00 00 80 e1 13 d1 bf
       -0.33186089992523193 -0.2668384313583374
0003d0 00 00 00 80 2a 94 c5 bf 00 00 00 00 c8 58 b0 bf
       -0.1685841679573059 -0.06385469436645508
0003e0 00 00 00 40 2b 86 d9 3f 00 00 00 a0 6c 82 e3 bf
       0.39881402254104614 -0.6096709370613098
0003f0 00 00 00 40 9a e7 dd 3f 00 00 00 c0 4e 6b d3 3f
       0.4672608971595764 0.30342453718185425
000400 00 00 00 40 64 07 d0 3f 00 00 00 e0 94 4e e1 3f
       0.25045114755630493 0.5408424735069275
000410 00 00 00 60 06 55 e3 3f 00 00 00 40 d4 d3 e5 bf
       0.6041290163993835 -0.6821080446243286
000420 00 00 00 80 d7 90 c0 bf 00 00 00 80 68 40 c7 3f
       -0.1294202208518982 0.18165308237075806
000430 00 00 00 00 6f 22 c8 bf 00 00 00 00 61 f8 b5 bf
       -0.18855082988739014 -0.08582121133804321
000440 00 00 00 40 52 e2 e0 bf 00 00 00 a0 04 93 d2 bf
       -0.5276271104812622 -0.29022327065467834
000450 00 00 00 20 84 45 e5 3f 00 00 00 00 49 58 d2 3f
       0.6647358536720276 0.2866384983062744
000460 00 00 00 00 ac 01 a6 3f 00 00 00 20 51 d7 e2 3f
       0.042981505393981934 0.5887838006019592
000470 00 00 00 80 8a 34 c2 bf 00 00 00 00 94 25 9f 3f
       -0.14222842454910278 0.030416786670684814
000480 00 00 00 80 df 3b e1 bf 00 00 00 40 74 b5 de bf
       -0.5385587215423584 -0.47982507944107056
000490 00 00 00 80 4e c6 d0 3f 00 00 00 80 98 34 d0 3f
       0.2621036767959595 0.253210186958313
0004a0 00 00 00 40 e6 fb d4 3f 00 00 00 00 6a 77 cc 3f
       0.32787472009658813 0.22239422798156738
0004b0 00 00 00 00 a1 c6 c8 bf 00 00 00 40 7d 7c ce bf
       -0.19356167316436768 -0.23817411065101624
0004c0 00 00 00 c0 32 1f d0 3f 00 00 00 40 04 a6 de bf
       0.2519041895866394 -0.4788828492164612
0004d0 00 00 00 00 71 3b b7 3f 00 00 00 00 00 77 89 bf
       0.09075075387954712 -0.012434005737304688
0004e0 00 00 00 80 b9 05 c8 bf 00 00 00 a0 27 be e3 3f
       -0.18767470121383667 0.6169622540473938
0004f0 00 00 00 80 08 b0 cc 3f 00 00 00 80 aa b3 c6 3f
       0.22412210702896118 0.1773579716682434
000500 00 00 00 00 34 87 c9 3f 00 00 00 00 22 ae b9 3f
       0.19943857192993164 0.10031330585479736
000510 00 00 00 20 82 32 d9 bf 00 00 00 c0 8a 50 da 3f
       -0.3937077820301056 0.41116589307785034
000520 00 00 00 c0 2c 08 d8 3f 00 00 00 00 9d 1f ba 3f
       0.3754989504814148 0.10204488039016724
000530 00 00 00 80 29 e2 cb 3f 00 00 00 80 5a f9 d5 bf
       0.21783941984176636 -0.3433443307876587
000540 00 00 00 a0 49 7b e6 3f 00 00 00 40 eb d8 de 3f
       0.7025497555732727 0.48198968172073364
000550 00 00 00 60 98 84 e3 3f 00 00 00 40 84 b2 db 3f
       0.6099359393119812 0.4327707886695862
000560 00 00 00 00 5a 0f ad bf 00 00 00 c0 4c 86 d1 bf
       -0.05675774812698364 -0.27382200956344604
000570 00 00 00 20 fc e1 e4 3f 00 00 00 00 d2 43 b0 3f
       0.652586042881012 0.06353485584259033
000580 00 00 00 40 0a 5a da bf 00 00 00 00 da c2 b9 bf
       -0.4117456078529358 -0.10062944889068604
000590 00 00 00 e0 d4 fa e1 3f 00 00 00 40 4e dc dc 3f
       0.5618690848350525 0.4509463906288147
0005a0 00 00 00 80 6f 1c c9 bf 00 00 00 40 a6 91 da 3f
       -0.1961802840232849 0.41513973474502563
0005b0 00 00 00 c0 f8 ba de bf 00 00 00 40 41 f2 d3 3f
       -0.4801618456840515 0.3116610646247864
0005c0 00 00 00 40 c2 64 da 3f 00 00 00 80 ff 69 c1 bf
       0.4123998284339905 -0.13604730367660522
0005d0 00 00 00 20 6e f3 e4 3f 00 00 00 c0 38 7e e4 bf
       0.6547155976295471 -0.640407919883728
0005e0 00 00 00 c0 24 85 d9 3f 00 00 00 00 3a cd c5 3f
       0.398751437664032 0.17032551765441895
0005f0 00 00 00 00 aa 68 a5 3f 00 00 00 00 6a 61 af 3f
       0.04181414842605591 0.061290085315704346
000600 00 00 00 00 90 06 7c 3f 00 00 00 40 88 18 d3 3f
       0.006842195987701416 0.2983723282814026
000610 00 00 00 00 93 cf b8 bf 00 00 00 c0 1a af e5 bf
       -0.09691733121871948 -0.6776250600814819
000620 00 00 00 00 e6 75 ce bf 00 00 00 a0 72 62 e1 3f
       -0.23797297477722168 0.543267548084259
000630 00 00 00 00 44 47 ad 3f 00 00 00 80 bd d0 e3 bf
       0.05718433856964111 -0.6192309856414795
000640 00 00 00 e0 db 35 e5 bf 00 00 00 80 bc 6e cd bf
       -0.6628245711326599 -0.22994190454483032
000650 00 00 00 00 34 c2 9a bf 00 00 00 e0 e5 93 e2 3f
       -0.02613145112991333 0.5805539488792419
000660 00 00 00 c0 dd fd d9 bf 00 00 00 c0 36 77 d7 3f
       -0.40611976385116577 0.3666512370109558
000670 00 00 00 20 44 53 e6 3f 00 00 00 e0 eb e8 e3 bf
       0.6976643204689026 -0.6221827864646912
000680 00 00 00 20 1c 85 e6 bf 00 00 00 40 a3 64 df 3f
       -0.7037487626075745 0.49051743745803833
000690 00 00 00 00 c3 72 d0 3f 00 00 00 e0 cf 77 e5 3f
       0.2570044994354248 0.6708754897117615
0006a0 00 00 00 00 60 df 86 3f 00 00 00 80 35 5e dd bf
       0.011168241500854492 -0.45887506008148193
0006b0 00 00 00 80 47 c5 e5 bf 00 00 00 80 c6 f7 d8 bf
       -0.6803319454193115 -0.39012300968170166
0006c0 00 00 00 c0 e2 f0 d6 3f 00 00 00 c0 6b 2f da 3f
       0.3584524989128113 0.4091443419456482
0006d0 00 00 00 40 af e3 ca bf 00 00 00 00 73 6d b7 bf
       -0.21007338166236877 -0.09151381254196167
0006e0 00 00 00 a0 38 cd e5 bf 00 00 00 80 6d 0d e1 bf
       -0.6813014149665833 -0.5328891277313232
0006f0 00 00 00 00 7d b5 c0 3f 00 00 00 c0 8e db d2 3f
       0.13053858280181885 0.29465073347091675
000700 00 00 00 00 c6 80 ce bf 00 00 00 00 7d 3f c4 3f
       -0.23830485343933105 0.15818750858306885
000710 00 00 00 20 29 1f e1 bf 00 00 00 c0 0e d9 dc 3f
       -0.5350537896156311 0.45074814558029175
000720 00 00 00 e0 0b 4a e6 bf 00 00 00 80 53 e7 c7 3f
       -0.6965388655662537 0.1867470145225525
000730 00 00 00 80 81 60 c4 bf 00 00 00 00 f8 39 82 3f
       -0.15919512510299683 0.00889962911605835
000740 00 00 00 00 87 fe cc bf 00 00 00 00 08 7c 9d bf
       -0.22651755809783936 -0.02879345417022705
000750 00 00 00 60 b5 ce d9 bf 00 00 00 60 87 ea e4 bf
       -0.40324148535728455 -0.6536290049552917
000760 00 00 00 00 74 53 bb bf 00 00 00 40 12 87 d0 bf
       -0.10674214363098145 -0.2582440972328186
000770 00 00 00 00 80 a7 de bf 00 00 00 00 96 cb d0 3f
       -0.478973388671875 0.26242589950561523
000780 00 00 00 00 70 38 71 3f 00 00 00 00 6a 4d aa 3f
       0.004204213619232178 0.051371872425079346
000790 00 00 00 40 47 d5 d5 bf 00 00 00 c0 f2 d8 d6 bf
       -0.341142475605011 -0.3569914698600769
0007a0 00 00 00 00 bc 4a 90 bf 00 00 00 60 ee 0e e3 3f
       -0.015910089015960693 0.5955726504325867
0007b0 00 00 00 20 9a 14 dc bf 00 00 00 a0 d1 77 e0 bf
       -0.43875744938850403 -0.5146263241767883
0007c0 00 00 00 00 c1 c3 be 3f 00 00 00 a0 97 97 d7 bf
       0.12017446756362915 -0.3686274588108063
0007d0 00 00 00 a0 8f eb e3 3f 00 00 00 00 fc ae 9f bf
       0.6225050091743469 -0.0309409499168396
0007e0 00 00 00 c0 43 71 d9 3f 00 00 00 00 c0 93 d0 3f
       0.39753812551498413 0.2590179443359375
0007f0 00 00 00 e0 4a 20 e1 bf 00 00 00 c0 53 6d d3 3f
       -0.5351919531822205 0.30354779958724976

encoder_layer.linear2.weight f8 [2, 2048]
000000 00 00 00 00 5b 1b 81 3f 00 00 00 e0 e8 78 96 3f
       0.008352957665920258 0.021945608779788017
000010 00 00 00 80 25 9e 75 3f 00 00 00 20 b0 26 8f bf
       0.00527777336537838 -0.015210510231554508
000020 00 00 00 e0 a3 2d 8e bf 00 00 00 e0 ff 67 90 3f
       -0.014735489152371883 0.01602172665297985
000030 00 00 00 80 cc 1f 8d bf 00 00 00 40 0d f9 95 bf
       -0.014220807701349258 -0.021457869559526443
000040 00 00 00 60 02 b6 95 bf 00 00 00 40 7d 10 82 bf
       -0.021202122792601585 -0.008820513263344765
000050 00 00 00 00 80 ab 43 bf 00 00 00 00 92 94 74 3f
       -0.000600278377532959 0.0050245001912117004
000060 00 00 00 00 87 f1 87 bf 00 00 00 00 87 6b 6d 3f
       -0.011691145598888397 0.0035913120955228806
000070 00 00 00 00 16 a1 8c bf 00 00 00 00 8b c5 65 bf
       -0.013979122042655945 -0.0026576723903417587
000080 00 00 00 00 ea 5e 52 3f 00 00 00 00 94 16 65 bf
       0.001121262088418007 -0.002574242651462555
000090 00 00 00 a0 30 87 92 3f 00 00 00 40 9b 85 81 bf
       0.018093833699822426 -0.008555615320801735
0000a0 00 00 00 00 c0 8b 07 bf 00 00 00 80 86 a8 74 bf
       -4.4910237193107605e-05 -0.005043530836701393
0000b0 00 00 00 80 0a 0d 96 bf 00 00 00 00 f2 7e 6a 3f
       -0.02153412252664566 0.0032343603670597076
0000c0 00 00 00 80 b5 d9 91 bf 00 00 00 00 d0 8f 73 3f
       -0.01743205636739731 0.004775822162628174
0000d0 00 00 00 80 f5 00 87 bf 00 00 00 00 74 b0 6f 3f
       -0.011232297867536545 0.003868319094181061
0000e0 00 00 00 a0 d8 95 91 3f 00 00 00 20 b1 9e 90 bf
       0.017173180356621742 -0.01623036153614521
0000f0 00 00 00 c0 16 27 92 bf 00 00 00 60 65 17 92 3f
       -0.017727237194776535 0.0176673736423254
000100 00 00 00 20 98 84 81 bf 00 00 00 00 90 75 6b 3f
       -0.008553684689104557 0.003351956605911255
000110 00 00 00 00 c0 ac 5f bf 00 00 00 80 49 02 78 3f
       -0.001933276653289795 0.0058615561574697495
000120 00 00 00 a0 c7 25 91 3f 00 00 00 40 15 5f 8f 3f
       0.016745680943131447 0.015318075194954872
000130 00 00 00 00 94 82 4d bf 00 00 00 60 67 e1 92 3f
       -0.0009005758911371231 0.01843797229230404
000140 00 00 00 40 0a 4c 89 bf 00 00 00 20 33 d2 90 3f
       -0.012352066114544868 0.016426848247647285
000150 00 00 00 40 fa 2c 90 bf 00 00 00 80 39 f8 73 bf
       -0.01579657569527626 -0.0048753973096609116
000160 00 00 00 40 7f a1 87 bf 00 00 00 40 e3 62 85 3f
       -0.011538499966263771 0.010442519560456276
000170 00 00 00 20 67 39 94 3f 00 00 00 c0 66 5f 86 3f
       0.01975022442638874 0.010924151167273521
000180 00 00 00 80 bd 1f 7f 3f 00 00 00 00 81 05 65 3f
       0.007598629221320152 0.0025661010295152664
000190 00 00 00 e0 13 4e 95 3f 00 00 00 80 9f 2d 82 bf
       0.020805655047297478 -0.008876081556081772
0001a0 00 00 00 00 ff a0 82 bf 00 00 00 40 e7 e1 95 bf
       -0.009096138179302216 -0.021369565278291702
0001b0 00 00 00 80 1d 15 71 bf 00 00 00 a0 ce 25 94 3f
       -0.004170527681708336 0.019675472751259804
0001c0 00 00 00 e0 41 be 90 bf 00 00 00 40 5b 52 85 3f
       -0.016350774094462395 0.010410988703370094
0001d0 00 00 00 60 8c 38 8c bf 00 00 00 80 c0 2a 92 bf
       -0.013779732398688793 -0.017741210758686066
0001e0 00 00 00 c0 e9 b6 8a 3f 00 00 00 00 f2 9e 68 3f
       0.013044191524386406 0.0030054785311222076
0001f0 00 00 00 e0 29 12 83 bf 00 00 00 80 65 97 79 3f
       -0.009311988018453121 0.006247898563742638
000200 00 00 00 00 af cc 62 bf 00 00 00 c0 51 96 85 3f
       -0.002294866368174553 0.010540617629885674
000210 00 00 00 c0 2d b9 88 3f 00 00 00 20 d8 f3 85 bf
       0.012071950361132622 -0.010719002224504948
000220 00 00 00 00 b1 fd 7d 3f 00 00 00 80 82 85 86 bf
       0.007322017103433609 -0.010996837168931961
000230 00 00 00 40 3e 2a 96 bf 00 00 00 00 38 3f 7a bf
       -0.021645519882440567 -0.006407946348190308
000240 00 00 00 00 f7 bf 78 bf 00 00 00 40 3e e9 7e bf
       -0.006042446941137314 -0.0075466567650437355
000250 00 00 00 00 2e 94 6e 3f 00 00 00 80 91 d9 8f bf
       0.003732766956090927 -0.015551697462797165
000260 00 00 00 60 32 04 92 3f 00 00 00 00 32 c8 88 bf
       0.01759413443505764 -0.012100592255592346
000270 00 00 00 00 5d ae 6a bf 00 00 00 40 c4 6a 8e 3f
       -0.0032569710165262222 0.014852078631520271
000280 00 00 00 40 f8 73 85 bf 00 00 00 80 a4 c2 95 bf
       -0.010475100949406624 -0.021250315010547638
000290 00 00 00 e0 6e e6 94 3f 00 00 00 80 d5 5f 79 bf
       0.020410282537341118 -0.006194910034537315
0002a0 00 00 00 00 8b 5c 78 3f 00 00 00 40 83 c9 86 3f
       0.005947630852460861 0.011126542463898659
0002b0 00 00 00 60 36 41 92 3f 00 00 00 c0 00 a2 91 bf
       0.01782689057290554 -0.017219554632902145
0002c0 00 00 00 40 70 82 88 3f 00 00 00 c0 e4 61 96 bf
       0.01196754164993763 -0.021857809275388718
0002d0 00 00 00 60 ca 75 96 bf 00 00 00 00 42 e0 65 3f
       -0.02193371020257473 0.0026704110205173492
0002e0 00 00 00 40 ec f4 82 3f 00 00 00 c0 95 64 95 bf
       0.009256215766072273 -0.02089151367545128
0002f0 00 00 00 00 05 8f 78 bf 00 00 00 00 88 b3 6f bf
       -0.005995769053697586 -0.003869786858558655
000300 00 00 00 00 81 3d 67 3f 00 00 00 20 3f 42 96 3f
       0.0028369445353746414 0.02173708565533161
000310 00 00 00 c0 02 a0 87 3f 00 00 00 40 86 91 87 3f
       0.011535665020346642 0.01150803454220295
000320 00 00 00 e0 77 89 90 3f 00 00 00 00 78 fd 35 bf
       0.016149399802088737 -0.0003355424851179123
000330 00 00 00 40 dc 3e 94 bf 00 00 00 a0 36 88 90 3f
       -0.019771043211221695 0.016144612804055214
000340 00 00 00 c0 67 db 7f bf 00 00 00 00 10 b8 32 3f
       -0.007777600549161434 0.00028562918305397034
000350 00 00 00 60 2f 74 95 bf 00 00 00 e0 c2 53 88 bf
       -0.02095102332532406 -0.011878511868417263
000360 00 00 00 00 13 15 6f 3f 00 00 00 a0 31 1d 83 bf
       0.003794228658080101 -0.009333026595413685
000370 00 00 00 60 87 3f 96 bf 00 00 00 00 40 2c 0c bf
       -0.021726718172430992 -5.373544991016388e-05
000380 00 00 00 20 75 ab 93 3f 00 00 00 80 0a 25 79 3f
       0.019208746030926704 0.006138840690255165
000390 00 00 00 c0 24 85 80 bf 00 00 00 00 c8 66 36 bf
       -0.008066451177001 -0.0003418195992708206
0003a0 00 00 00 a0 e4 dd 95 bf 00 00 00 c0 da f4 95 bf
       -0.02135426737368107 -0.021441858261823654
0003b0 00 00 00 80 65 f8 74 3f 00 00 00 60 6d 37 87 bf
       0.005119701847434044 -0.011336187832057476
0003c0 00 00 00 c0 e1 dd 8c 3f 00 00 00 00 04 4b 4f bf
       0.014095081016421318 -0.0009549874812364578
0003d0 00 00 00 20 5e 49 84 bf 00 00 00 00 18 8f 89 bf
       -0.009905562736093998 -0.012479960918426514
0003e0 00 00 00 00 f2 ff 5a bf 00 00 00 a0 ef 68 90 3f
       -0.0016479361802339554 0.016025299206376076
0003f0 00 00 00 60 30 53 8b bf 00 00 00 a0 d3 1d 90 3f
       -0.013342264108359814 0.015738779678940773
000400 00 00 00 c0 1e b8 85 bf 00 00 00 00 10 f4 31 bf
       -0.010605087503790855 -0.0002739466726779938
000410 00 00 00 00 a8 97 6e bf 00 00 00 00 9c 57 75 bf
       -0.0037344247102737427 -0.005210503935813904
000420 00 00 00 00 2c 11 88 bf 00 00 00 60 8d 61 8c bf
       -0.011751502752304077 -0.013857941143214703
000430 00 00 00 80 a3 4a 7d 3f 00 00 00 00 73 a0 76 3f
       0.007151259109377861 0.005524110049009323
000440 00 00 00 40 87 82 8d 3f 00 00 00 c0 01 18 8e bf
       0.014409119263291359 -0.014694226905703545
000450 00 00 00 00 f8 46 3a 3f 00 00 00 00 fc b4 71 bf
       0.0004009585827589035 -0.004322990775108337
000460 00 00 00 20 0e 28 93 3f 00 00 00 20 01 8b 90 3f
       0.018707485869526863 0.016155259683728218
000470 00 00 00 00 30 6f 47 3f 00 00 00 80 30 9c 70 bf
       0.0007151588797569275 -0.00405520386993885
000480 00 00 00 60 3f 3d 92 bf 00 00 00 c0 bf 70 88 3f
       -0.017811765894293785 0.01193380169570446
000490 00 00 00 80 52 c2 7f 3f 00 00 00 80 65 51 81 3f
       0.007753679528832436 0.0084560327231884
0004a0 00 00 00 a0 f5 87 96 3f 00 00 00 40 fc d2 82 bf
       0.022003019228577614 -0.009191485121846199
0004b0 00 00 00 c0 6f d7 83 bf 00 00 00 00 57 dd 66 3f
       -0.009688256308436394 0.0027910899370908737
0004c0 00 00 00 00 4a 6f 7e 3f 00 00 00 c0 2b ce 8e 3f
       0.00743035227060318 0.01504167728126049
0004d0 00 00 00 a0 30 37 92 3f 00 00 00 00 9d 70 88 bf
       0.017788657918572426 -0.011933542788028717
0004e0 00 00 00 40 56 8c 85 3f 00 00 00 00 00 14 d4 be
       0.010521577671170235 -4.7869980335235596e-06
0004f0 00 00 00 00 69 ee 63 bf 00 00 00 60 5e 2f 83 bf
       -0.002433018758893013 -0.009367692284286022
000500 00 00 00 c0 05 f5 95 bf 00 00 00 e0 ad 28 88 bf
       -0.02144249901175499 -0.01179633941501379
000510 00 00 00 c0 97 a6 8a 3f 00 00 00 80 cd 70 83 bf
       0.013013062998652458 -0.009492497891187668
000520 00 00 00 c0 67 b1 89 3f 00 00 00 c0 59 80 87 3f
       0.012545404955744743 0.011475278064608574
000530 00 00 00 c0 62 61 84 bf 00 00 00 c0 21 b3 82 3f
       -0.009951373562216759 0.009130729362368584
000540 00 00 00 40 c1 e4 8d 3f 00 00 00 20 68 d8 95 3f
       0.014596471562981606 0.02133333869278431
000550 00 00 00 40 e0 d4 86 3f 00 00 00 80 57 78 8e bf
       0.01114821620285511 -0.01487797126173973
000560 00 00 00 00 01 84 6d 3f 00 00 00 e0 79 32 96 3f
       0.0036029834300279617 0.02167692594230175
000570 00 00 00 00 54 75 6c 3f 00 00 00 60 23 e9 92 3f
       0.003473915159702301 0.018467476591467857
000580 00 00 00 00 60 4d 28 bf 00 00 00 80 9f 3f 8a bf
       -0.00018541142344474792 -0.012816663831472397
000590 00 00 00 c0 49 71 8d 3f 00 00 00 40 a1 12 92 bf
       0.014376236125826836 -0.017649192363023758
0005a0 00 00 00 c0 4e 0c 96 bf 00 00 00 40 71 11 91 bf
       -0.021531324833631516 -0.016668099910020828
0005b0 00 00 00 c0 aa 2c 8d 3f 00 00 00 60 13 f2 92 3f
       0.014245351776480675 0.01850157044827938
0005c0 00 00 00 80 4e c0 91 bf 00 00 00 80 b9 82 83 bf
       -0.017335154116153717 -0.009526681154966354
0005d0 00 00 00 40 21 52 82 3f 00 00 00 00 a1 ba 71 3f
       0.008945712819695473 0.004328373819589615
0005e0 00 00 00 40 b6 f2 8e 3f 00 00 00 00 b8 be 67 3f
       0.015111373737454414 0.0028985589742660522
0005f0 00 00 00 40 65 f1 95 bf 00 00 00 a0 39 15 94 3f
       -0.021428663283586502 0.01961221732199192
000600 00 00 00 80 f4 c9 77 3f 00 00 00 20 fb 4f 86 bf
       0.00580783374607563 -0.01089473906904459
000610 00 00 00 00 75 13 8c bf 00 00 00 00 f9 2e 75 3f
       -0.013708986341953278 0.0051717497408390045
000620 00 00 00 80 55 34 93 bf 00 00 00 00 f0 59 46 bf
       -0.018754325807094574 -0.0006821081042289734
000630 00 00 00 e0 b6 a8 93 bf 00 00 00 c0 f9 f4 93 bf
       -0.019198281690478325 -0.019489195197820663
000640 00 00 00 00 07 69 77 bf 00 00 00 20 a2 ee 95 bf
       -0.0057153962552547455 -0.021418126299977303
000650 00 00 00 20 16 92 92 3f 00 00 00 00 68 10 46 3f
       0.018135400488972664 0.0006733424961566925
000660 00 00 00 20 e0 ea 8a bf 00 00 00 40 b5 f8 83 bf
       -0.01314330194145441 -0.009751716628670692
000670 00 00 00 e0 a3 23 95 bf 00 00 00 20 42 d4 93 3f
       -0.020643768832087517 0.019364388659596443
000680 00 00 00 20 21 55 96 3f 00 00 00 c0 bb 1d 94 bf
       0.02180911786854267 -0.01964467391371727
000690 00 00 00 40 b0 fd 85 3f 00 00 00 c0 d2 eb 8d 3f
       0.01073777861893177 0.01460995338857174
0006a0 00 00 00 00 13 e8 69 3f 00 00 00 00 48 da 66 bf
       0.0031624194234609604 -0.002789631485939026
0006b0 00 00 00 80 be 49 76 3f 00 00 00 20 47 39 88 bf
       0.005441421642899513 -0.011827998794615269
0006c0 00 00 00 c0 22 d5 90 bf 00 00 00 00 d4 fd 80 bf
       -0.01643804833292961 -0.00829663872718811
0006d0 00 00 00 c0 51 f2 87 3f 00 00 00 80 3a 2f 84 bf
       0.011692656204104424 -0.009855706244707108
0006e0 00 00 00 e0 42 24 96 3f 00 00 00 c0 22 fa 8d 3f
       0.02162270061671734 0.014637252315878868
0006f0 00 00 00 00 14 7c 41 bf 00 00 00 a0 eb 24 85 bf
       -0.000533590093255043 -0.0103243263438344
000700 00 00 00 00 20 44 6a 3f 00 00 00 80 e6 bd 70 bf
       0.003206312656402588 -0.004087353125214577
000710 00 00 00 60 93 78 96 3f 00 00 00 c0 bb 59 8e 3f
       0.021944334730505943 0.014819590374827385
000720 00 00 00 00 7e 2f 6a 3f 00 00 00 40 ae 63 84 3f
       0.00319647416472435 0.009955750778317451
000730 00 00 00 40 8c 06 8f bf 00 00 00 40 ae 91 8f bf
       -0.015149207785725594 -0.015414582565426826
000740 00 00 00 e0 43 03 93 bf 00 00 00 c0 12 2b 94 bf
       -0.018567143008112907 -0.01969556137919426
000750 00 00 00 40 9c 64 7c bf 00 00 00 80 1d ab 90 bf
       -0.00693188700824976 -0.016277752816677094
000760 00 00 00 80 0c 3f 73 bf 00 00 00 00 87 69 61 bf
       -0.0046987999230623245 -0.0021255146712064743
000770 00 00 00 a0 4f 24 94 bf 00 00 00 00 5d da 74 bf
       -0.01966976560652256 -0.0050910599529743195
000780 00 00 00 c0 bf f6 92 bf 00 00 00 00 48 6b 57 bf
       -0.01851939782500267 -0.0014293864369392395
000790 00 00 00 00 f8 f8 49 3f 00 00 00 80 df 97 84 bf
       0.0007926188409328461 -0.0100552998483181
0007a0 00 00 00 20 e2 b1 86 bf 00 00 00 c0 91 32 8a 3f
       -0.011081472970545292 0.012791765853762627
0007b0 00 00 00 80 bf b2 8c bf 00 00 00 00 62 f8 6b 3f
       -0.014012809842824936 0.0034143365919589996
0007c0 00 00 00 a0 0b 4a 90 3f 00 00 00 e0 3c 3f 94 3f
       0.01590746082365513 0.01977248303592205
0007d0 00 00 00 c0 37 9e 84 bf 00 00 00 40 66 cf 8a bf
       -0.010067401453852654 -0.013090895488858223
0007e0 00 00 00 00 16 d4 58 3f 00 00 00 40 26 29 7b bf
       0.0015154089778661728 -0.006631040014326572
0007f0 00 00 00 40 01 cc 81 3f 00 00 00 00 43 b8 69 bf
       0.008689889684319496 -0.0031396206468343735

encoder_layer.linear2.bias f8 [2]
000000 00 00 00 80 1a 86 7c 3f 00 00 00 00 28 6b 49 bf
       0.006963828578591347 -0.0007757134735584259

encoder_layer.norm1.weight f8 [2]
000000 00 00 00 00 00 00 f0 3f 00 00 00 00 00 00 f0 3f
       1.0 1.0

encoder_layer.norm1.bias f8 [2]
000000 00 00 00 00 00 00 00 00 00 00 00 00 00 00 00 00
       0.0 0.0

encoder_layer.norm2.weight f8 [2]
000000 00 00 00 00 00 00 f0 3f 00 00 00 00 00 00 f0 3f
       1.0 1.0

encoder_layer.norm2.bias f8 [2]
000000 00 00 00 00 00 00 00 00 00 00 00 00 00 00 00 00
       0.0 0.0

transformer_encoder.layers.0.self_attn.in_proj_weight f8 [6, 2]
000000 00 00 00 40 20 d3 d9 3f 00 00 00 60 93 a8 e8 3f
       0.403511106967926 0.7705780863761902
000010 00 00 00 00 0f f7 bb 3f 00 00 00 40 27 91 d2 3f
       0.10923856496810913 0.29010945558547974
000020 00 00 00 00 f3 fd c1 bf 00 00 00 60 14 b0 e7 bf
       -0.14056241512298584 -0.7402440905570984
000030 00 00 00 c0 c5 bf e9 bf 00 00 00 80 e6 5b c9 3f
       -0.8046597242355347 0.19811707735061646
000040 03 00 00 00 64 b7 d1 bf fe ff ff 5f ad b6 e9 3f
       -0.2768182754516603 0.8035494685173032
000050 02 00 00 00 04 c8 dc bf 03 00 00 80 c0 f0 cf bf
       -0.4497079849243165 -0.2495346665382386

transformer_encoder.layers.0.self_attn.in_proj_bias f8 [6]
000000 92 55 eb f0 67 4e 7e 3c c1 a8 1e 80 87 63 77 bc
       2.62865020680795e-17 -2.0286538354605575e-17
000010 38 fd 97 1b de f8 54 38 83 db f5 3b c1 b2 34 38
       2.465263103187207e-37 6.082672225274403e-38
000020 78 7b e3 c1 db 00 be bc 48 dc c5 e5 97 4a b3 bc
       -4.1638016966918905e-16 -2.6772168194411184e-16

transformer_encoder.layers.0.self_attn.out_proj.weight f8 [2, 2]
000000 fe ff ff 7f 0c ca e1 bf 05 00 00 c0 15 f9 d4 bf
       -0.5559141635894773 -0.32770293951034574
000010 06 00 00 80 ae 85 c1 bf db ff ff ff 37 d7 ad bf
       -0.13689213991165178 -0.058282613754272204

transformer_encoder.layers.0.self_attn.out_proj.bias f8 [2]
000000 dc c6 2c 37 9c e6 d1 3c dc c6 2c 37 9c e6 d1 bc
       9.936951905639492e-16 -9.936951905639492e-16
