save_model/best_train_507.pth (torch, 345551 bytes, 50 tensors)

encoder_layer.self_attn.in_proj_weight f8 [6, 2]
000000 00 00 00 c0 97 8f d2 3f 00 00 00 80 ca d2 cd 3f
       0.29001420736312866 0.23299533128738403
000010 00 00 00 00 14 eb e8 bf 00 00 00 40 9d d2 dc bf
       -0.7786960601806641 -0.4503548741340637
000020 00 00 00 00 ac d1 b2 3f 00 00 00 60 87 bb e5 bf
       0.07351183891296387 -0.6791417002677917
000030 00 00 00 00 62 7f c8 bf 00 00 00 20 f2 1d e6 3f
       -0.19138741493225098 0.6911554932594299
000040 00 00 00 40 a3 1f e2 bf 00 00 00 40 a6 e6 d2 3f
       -0.5663620233535767 0.29532772302627563
000050 00 00 00 e0 6d 01 e7 bf 00 00 00 e0 84 77 e5 3f
       -0.7189244627952576 0.6708397269248962

encoder_layer.self_attn.in_proj_bias f8 [6]
000000 00 00 00 00 00 00 00 00 00 00 00 00 00 00 00 00
       0.0 0.0
000010 00 00 00 00 00 00 00 00 00 00 00 00 00 00 00 00
       0.0 0.0
000020 00 00 00 00 00 00 00 00 00 00 00 00 00 00 00 00
       0.0 0.0

encoder_layer.self_attn.out_proj.weight f8 [2, 2]
000000 00 00 00 40 47 ec dc 3f 00 00 00 a0 b6 c5 e4 3f
       0.451921284198761 0.6491349339485168
000010 00 00 00 40 6e 67 e5 bf 00 00 00 c0 e6 21 db 3f
       -0.6688758134841919 0.4239441752433777

encoder_layer.self_attn.out_proj.bias f8 [2]
000000 00 00 00 00 00 00 00 00 00 00 00 00 00 00 00 00
       0.0 0.0

encoder_layer.linear1.weight f8 [2048, 2]
000000 00 00 00 c0 47 f6 de 3f 00 00 00 00 50 44 8f bf
       0.48378175497055054 -0.015267014503479004
000010 00 00 00 00 96 6b be 3f 00 00 00 00 82 28 a5 bf
       0.11882913112640381 -0.0413246750831604
000020 00 00 00 80 71 08 dd bf 00 00 00 00 f5 c6 ce 3f
       -0.453640341758728 0.24044668674468994
000030 00 00 00 e0 dd af da bf 00 00 00 c0 a8 ab e1 bf
       -0.41698405146598816 -0.5522044897079468
000040 00 00 00 c0 c9 ef d9 3f 00 00 00 40 51 14 db bf
       0.40526050329208374 -0.423115074634552
000050 00 00 00 00 be 14 bf bf 00 00 00 00 70 d7 8f 3f
       -0.12141025066375732 0.015547633171081543
000060 00 00 00 e0 55 21 e2 bf 00 00 00 00 1c 00 db bf
       -0.5665692687034607 -0.42188167572021484
000070 00 00 00 00 18 ee c7 3f 00 00 00 00 d6 7e ac 3f
       0.18695354461669922 0.05565518140792847
000080 00 00 00 e0 ed a8 e0 3f 00 00 00 e0 a5 ad e1 3f
       0.5206212401390076 0.5524472594261169
000090 00 00 00 40 c9 d6 dc 3f 00 00 00 c0 00 1c de 3f
       0.4506095051765442 0.4704591631889343
0000a0 00 00 00 00 86 76 b0 bf 00 00 00 80 c8 06 dc bf
       -0.0643085241317749 -0.43791401386260986
0000b0 00 00 00 00 be 55 cf bf 00 00 00 e0 7e fd e2 3f
       -0.24480414390563965 0.593444287776947
0000c0 00 00 00 00 b6 49 c8 bf 00 00 00 e0 63 16 e6 3f
       -0.18974947929382324 0.6902331709861755
0000d0 00 00 00 00 fa d0 ad 3f 00 00 00 00 52 54 c6 3f
       0.058234989643096924 0.17444825172424316
0000e0 00 00 00 00 14 76 9a 3f 00 00 00 00 0a 50 e1 bf
       0.025841057300567627 -0.541020393371582
0000f0 00 00 00 e0 04 d7 e5 3f 00 00 00 60 6f 2d e2 bf
       0.6824974417686462 -0.5680462718009949
000100 00 00 00 40 81 64 d0 3f 00 00 00 e0 60 5d da bf
       0.2561343312263489 -0.41194936633110046
000110 00 00 00 00 25 3d ca 3f 00 00 00 80 7a 64 c5 3f
       0.20499098300933838 0.16712886095046997
000120 00 00 00 00 00 da 2c 3f 00 00 00 00 50 1f 98 bf
       0.00022011995315551758 -0.023556947708129883
000130 00 00 00 80 24 3d c7 bf 00 00 00 40 42 68 cc bf
       -0.1815534234046936 -0.22193172574043274
000140 00 00 00 a0 f8 c0 e1 3f 00 00 00 e0 a7 a8 e2 3f
       0.5548060536384583 0.5830878615379333
000150 00 00 00 60 c0 98 d8 bf 00 00 00 60 16 f6 e4 3f
       -0.38432320952415466 0.6550399661064148
000160 00 00 00 e0 1a f3 e0 3f 00 00 00 c0 aa ea d8 3f
       0.5296759009361267 0.3893229365348816
000170 00 00 00 a0 1e 01 dd bf 00 00 00 e0 96 1b d8 bf
       -0.453193336725235 -0.37668392062187195
000180 00 00 00 e0 3a aa d3 bf 00 00 00 00 3b 73 c2 3f
       -0.3072650134563446 0.1441415548324585
000190 00 00 00 60 a7 52 e2 3f 00 00 00 a0 7f 91 da bf
       0.5725895762443542 -0.41513052582740784
0001a0 00 00 00 80 22 8b e0 bf 00 00 00 80 ea 5c cf bf
       -0.516984224319458 -0.24502307176589966
0001b0 00 00 00 80 91 3d c9 bf 00 00 00 c0 e1 13 db 3f
       -0.19719141721725464 0.4230884909629822
0001c0 00 00 00 a0 5c 38 e1 3f 00 00 00 00 1a 72 b3 bf
       0.5381301045417786 -0.07595980167388916
0001d0 00 00 00 e0 2d c7 e4 3f 00 00 00 a0 b3 34 d4 bf
       0.6493138670921326 -0.3157166540622711
0001e0 00 00 00 00 18 83 a3 bf 00 00 00 00 a8 13 ab bf
       -0.038109540939331055 -0.05288434028625488
0001f0 00 00 00 20 40 d5 e1 3f 00 00 00 00 f9 1e c7 bf
       0.5572815537452698 -0.18063271045684814
000200 00 00 00 e0 7b 41 e4 bf 00 00 00 40 d3 50 df 3f
       -0.6329936385154724 0.4893081784248352
000210 00 00 00 80 f6 33 e1 bf 00 00 00 40 65 68 d1 bf
       -0.5375931262969971 -0.27199679613113403
000220 00 00 00 00 4e d5 a3 bf 00 00 00 e0 84 fd e4 3f
       -0.03873676061630249 0.6559471487998962
000230 00 00 00 a0 87 4c e1 3f 00 00 00 40 46 74 d8 3f
       0.5405920147895813 0.3820968270301819
000240 00 00 00 80 0c 08 e2 bf 00 00 00 00 96 01 ae bf
       -0.5634825229644775 -0.058605849742889404
000250 00 00 00 80 be aa e0 bf 00 00 00 00 6b a8 c3 3f
       -0.5208427906036377 0.15357720851898193
000260 00 00 00 c0 21 96 df 3f 00 00 00 a0 93 84 e0 bf
       0.4935383200645447 -0.5161836743354797
000270 00 00 00 00 f3 b6 c2 bf 00 00 00 80 bc 35 d1 3f
       -0.14620816707611084 0.26890480518341064
000280 00 00 00 80 d8 ff c2 3f 00 00 00 00 bc 05 90 3f
       0.14843279123306274 0.01564687490463257
000290 00 00 00 00 ee f1 c6 3f 00 00 00 80 d9 d7 c5 3f
       0.17925810813903809 0.1706497073173523
0002a0 00 00 00 80 06 5d cb 3f 00 00 00 c0 84 7f d2 3f
       0.21377640962600708 0.28903311491012573
0002b0 00 00 00 e0 15 fe e1 3f 00 00 00 80 89 00 cb 3f
       0.5622662901878357 0.21095389127731323
0002c0 00 00 00 c0 8b 9f e2 bf 00 00 00 80 b4 33 c7 3f
       -0.5819758176803589 0.18126541376113892
0002d0 00 00 00 40 8b 0d d7 3f 00 00 00 80 fc e5 e3 bf
       0.3602016568183899 -0.6218245029449463
0002e0 00 00 00 00 f6 3c b0 3f 00 00 00 40 40 01 d5 3f
       0.06343019008636475 0.3282013535499573
0002f0 00 00 00 00 ea e3 cc bf 00 00 00 c0 74 f5 d4 3f
       -0.22570538520812988 0.3274814486503601
000300 00 00 00 00 26 c9 ac bf 00 00 00 c0 60 8b d7 bf
       -0.05622214078903198 -0.3678819537162781
000310 00 00 00 40 be c5 e3 bf 00 00 00 00 23 ed b6 3f
       -0.6178885698318481 0.08955591917037964
000320 00 00 00 00 eb c8 b6 3f 00 00 00 40 cf a6 d6 3f
       0.08900326490402222 0.3539312481880188
000330 00 00 00 80 55 f8 c1 bf 00 00 00 e0 2a d0 e3 bf
       -0.1403910517692566 -0.619161069393158
000340 00 00 00 00 45 a7 b4 bf 00 00 00 00 41 7d e0 bf
       -0.080677330493927 -0.5152897834777832
000350 00 00 00 a0 10 85 d1 bf 00 00 00 00 cc 92 cf bf
       -0.27374663949012756 -0.24666738510131836
000360 00 00 00 80 1c 28 cf 3f 00 00 00 00 70 69 8e bf
       0.2434116005897522 -0.014849543571472168
000370 00 00 00 c0 9d 4b da 3f 00 00 00 00 24 c9 e4 bf
       0.41086524724960327 -0.6495532989501953
000380 00 00 00 00 1f d4 e2 bf 00 00 00 c0 04 b6 df 3f
       -0.5883936882019043 0.49548453092575073
000390 00 00 00 e0 e5 f4 d4 bf 00 00 00 40 41 a8 d2 bf
       -0.32744738459587097 -0.2915194630622864
0003a0 00 00 00 20 1e a7 e5 3f 00 00 00 c0 4d af d0 3f
       0.6766501069068909 0.26069968938827515
0003b0 00 00 00 c0 42 36 df 3f 00 00 00 40 b6 94 d6 3f
       0.48768681287765503 0.35282665491104126
0003c0 00 00 00 c0 7a ff db 3f 00 00 00 60 a7 4e e5 3f
       0.4374682307243347 0.6658512949943542
0003d0 00 00 00 60 d2 02 d0 bf 00 00 00 c0 e0 c8 d5 bf
       -0.2501722276210785 -0.3403856158256531
0003e0 00 00 00 40 0d ac d4 bf 00 00 00 40 26 47 db 3f
       -0.3230012059211731 0.42621761560440063
0003f0 00 00 00 e0 fc f0 e3 bf 00 00 00 c0 b1 f7 d8 3f
       -0.6231674551963806 0.3901180624961853
000400 00 00 00 00 e6 bb a6 bf 00 00 00 80 46 43 c7 3f
       -0.04440230131149292 0.18174058198928833
000410 00 00 00 60 9a 8a d6 bf 00 00 00 80 98 4b d0 3f
       -0.3522096574306488 0.254613995552063
000420 00 00 00 00 66 3e bf 3f 00 00 00 00 40 8c c0 3f
       0.12204587459564209 0.12928009033203125
000430 00 00 00 a0 76 b7 e1 3f 00 00 00 00 0a 9a a3 3f
       0.5536454319953918 0.03828459978103638
000440 00 00 00 a0 bc 7b d4 bf 00 00 00 20 60 b5 e0 3f
       -0.32005229592323303 0.5221405625343323
000450 00 00 00 60 41 44 e5 3f 00 00 00 00 75 c0 c5 bf
       0.6645819544792175 -0.16993582248687744
000460 00 00 00 c0 75 50 e6 bf 00 00 00 00 8c 95 cc 3f
       -0.6973217725753784 0.2233138084411621
000470 00 00 00 20 bf 09 d0 bf 00 00 00 00 fc 06 af bf
       -0.2505948841571808 -0.0606001615524292
000480 00 00 00 a0 7a 5d df bf 00 00 00 60 c5 30 e4 3f
       -0.49008050560951233 0.6309534907341003
000490 00 00 00 a0 fe c2 d0 bf 00 00 00 a0 03 b5 e1 3f
       -0.26190152764320374 0.5533464550971985
0004a0 00 00 00 80 cc e9 e3 bf 00 00 00 00 4c 76 c7 3f
       -0.6222898960113525 0.18329763412475586
0004b0 00 00 00 60 79 45 e4 3f 00 00 00 00 56 ff ac bf
       0.6334807276725769 -0.05663555860519409
0004c0 00 00 00 a0 90 ad e4 3f 00 00 00 80 17 ff ce 3f
       0.6461871266365051 0.24215978384017944
0004d0 00 00 00 c0 49 93 d9 bf 00 00 00 c0 c0 f1 df 3f
       -0.39961475133895874 0.4991304278373718
0004e0 00 00 00 00 c7 ab b9 3f 00 00 00 00 f0 63 bb bf
       0.1002773642539978 -0.1069936752319336
0004f0 00 00 00 e0 f4 23 d0 bf 00 00 00 80 6e 40 cd bf
       -0.2521946132183075 -0.22852879762649536
000500 00 00 00 60 d8 ee d2 bf 00 00 00 a0 0d a5 e4 bf
       -0.2958279550075531 -0.6451480984687805
000510 00 00 00 60 f3 c9 d9 bf 00 00 00 a0 63 b2 dc bf
       -0.40295109152793884 -0.448388010263443
000520 00 00 00 00 de bb a9 bf 00 00 00 e0 df 6c d7 bf
       -0.05026143789291382 -0.36602017283439636
000530 00 00 00 e0 84 2d e1 3f 00 00 00 e0 23 fd d4 bf
       0.5368065237998962 -0.32795044779777527
000540 00 00 00 c0 49 5d d9 bf 00 00 00 80 3d de e3 bf
       -0.39631885290145874 -0.6208789348602295
000550 00 00 00 00 7a 3b bd 3f 00 00 00 e0 6b 99 e4 bf
       0.1141887903213501 -0.6437281966209412
000560 00 00 00 80 a0 97 c6 bf 00 00 00 60 a3 f2 e3 3f
       -0.1765022873878479 0.6233689188957214
000570 00 00 00 40 bc 96 d8 3f 00 00 00 e0 ee 6a d4 bf
       0.38420015573501587 -0.3190266788005829
000580 00 00 00 e0 b5 ee e1 3f 00 00 00 a0 d9 eb e1 bf
       0.5603894591331482 -0.560040295124054
000590 00 00 00 20 e9 43 e3 3f 00 00 00 00 8b 04 bd 3f
       0.6020398736000061 0.11335057020187378
0005a0 00 00 00 e0 2a 19 e3 bf 00 00 00 20 47 55 e1 bf
       -0.596822202205658 -0.5416598916053772
0005b0 00 00 00 60 f5 6c e2 3f 00 00 00 40 fd d5 e5 bf
       0.5758005976676941 -0.6823717355728149
0005c0 00 00 00 a0 98 65 e5 bf 00 00 00 00 42 7f ab 3f
       -0.6686518788337708 0.05370527505874634
0005d0 00 00 00 c0 68 4f dc 3f 00 00 00 40 6e 4b e0 bf
       0.4423467516899109 -0.5092078447341919
0005e0 00 00 00 00 a1 86 b7 bf 00 00 00 00 7a f7 e3 bf
       -0.09189802408218384 -0.6239595413208008
0005f0 00 00 00 40 3e 78 e6 bf 00 00 00 40 31 95 d3 bf
       -0.7021781206130981 -0.30598098039627075
000600 00 00 00 20 35 61 e5 bf 00 00 00 c0 85 c7 e0 bf
       -0.6681161522865295 -0.5243557691574097
000610 00 00 00 40 7f e5 e1 bf 00 00 00 40 56 f4 d9 3f
       -0.5592647790908813 0.4055381417274475
000620 00 00 00 00 5a ea bb bf 00 00 00 c0 f4 3b d2 3f
       -0.10904467105865479 0.2849094271659851
000630 00 00 00 80 63 a5 c6 3f 00 00 00 00 12 db b3 bf
       0.1769222617149353 -0.07756149768829346
000640 00 00 00 40 a4 99 d2 3f 00 00 00 00 d8 d8 e1 bf
       0.29062753915786743 -0.5577201843261719
000650 00 00 00 00 0f c8 bb bf 00 00 00 c0 4d 2a de 3f
       -0.10852140188217163 0.47133201360702515
000660 00 00 00 20 74 89 e0 bf 00 00 00 00 21 33 c4 bf
       -0.5167790055274963 -0.15781033039093018
000670 00 00 00 c0 e8 2e dc 3f 00 00 00 00 4d af cc 3f
       0.4403631091117859 0.2240997552871704
000680 00 00 00 00 31 3e b8 bf 00 00 00 c0 38 a1 e0 bf
       -0.094698965549469 -0.519680380821228
000690 00 00 00 20 f4 2e e4 bf 00 00 00 60 c6 c7 e2 3f
       -0.6307316422462463 0.5868865847587585
0006a0 00 00 00 00 70 ee b7 3f 00 00 00 40 6c 02 d0 3f
       0.09348201751708984 0.25014787912368774
0006b0 00 00 00 20 d9 56 e4 3f 00 00 00 80 21 fd c3 3f
       0.6356015801429749 0.15616244077682495
0006c0 00 00 00 80 d7 7d c8 3f 00 00 00 00 81 b4 ca 3f
       0.1913403868675232 0.20863354206085205
0006d0 00 00 00 c0 0c b4 d7 3f 00 00 00 80 63 77 e3 bf
       0.37036436796188354 -0.6083238124847412
0006e0 00 00 00 80 58 4b c7 3f 00 00 00 80 4b 40 c7 3f
       0.18198686838150024 0.18164962530136108
0006f0 00 00 00 40 86 96 dc 3f 00 00 00 a0 ff 10 e2 3f
       0.4466872811317444 0.5645750164985657
000700 00 00 00 c0 b2 32 d5 3f 00 00 00 80 08 5e d6 bf
       0.3312193751335144 -0.34948933124542236
000710 00 00 00 60 66 f4 dc bf 00 00 00 40 93 d8 d5 bf
       -0.4524169862270355 -0.3413437008857727
000720 00 00 00 80 a3 58 c3 bf 00 00 00 00 f9 dd d1 bf
       -0.15114253759384155 -0.2791731357574463
000730 00 00 00 e0 f7 83 e3 3f 00 00 00 c0 a2 0a dd 3f
       0.6098594069480896 0.4537741541862488
000740 00 00 00 c0 85 bc d8 3f 00 00 00 e0 95 63 e0 3f
       0.38650649785995483 0.5121564269065857
000750 00 00 00 e0 68 4e e0 bf 00 00 00 c0 5c 08 d7 3f
       -0.5095714926719666 0.35988539457321167
000760 00 00 00 a0 81 21 e5 bf 00 00 00 40 cb d4 da 3f
       -0.6603401303291321 0.4192379117012024
000770 00 00 00 20 31 50 da bf 00 00 00 a0 b3 b2 e2 3f
       -0.41114452481269836 0.5843141674995422
000780 00 00 00 80 36 b7 d0 3f 00 00 00 80 a5 14 d1 3f
       0.26118242740631104 0.2668851613998413
000790 00 00 00 00 c0 3f b6 bf 00 00 00 40 d3 cb cb bf
       -0.08691024780273438 -0.2171577513217926
0007a0 00 00 00 60 56 fb dd bf 00 00 00 80 30 a3 dd bf
       -0.4684654176235199 -0.4630852937698364
0007b0 00 00 00 a0 1e aa d8 bf 00 00 00 a0 3d 46 e1 bf
       -0.385383278131485 -0.5398243069648743
0007c0 00 00 00 c0 fc 26 d8 bf 00 00 00 a0 3f 82 d9 bf
       -0.3773795962333679 -0.39857473969459534
0007d0 00 00 00 00 ef d0 e5 bf 00 00 00 60 f5 4a e5 3f
       -0.6817545890808105 0.6654002070426941
0007e0 00 00 00 40 06 52 d8 3f 00 00 00 20 f4 61 e3 3f
       0.3800063729286194 0.6057072281837463
0007f0 00 00 00 c0 d9 c4 df 3f 00 00 00 c0 9a 7a e0 bf
       0.49638980627059937 -0.5149663686752319

encoder_layer.linear1.bias f8 [2048]
000000 00 00 00 00 dc 8d de bf 00 00 00 20 1f 29 e3 3f
       -0.47740840911865234 0.5987697243690491
000010 00 00 00 40 2d 72 d2 3f 00 00 00 00 74 ab 9a bf
       0.28821879625320435 -0.02604466676712036
000020 00 00 00 c0 a2 1a db 3f 00 00 00 00 da 0f bb bf
       0.4235007166862488 -0.10571062564849854
000030 00 00 00 20 ec f4 e1 bf 00 00 00 c0 ce 24 cc bf
       -0.5611477494239807 -0.21987327933311462
000040 00 00 00 c0 34 6f e5 bf 00 00 00 c0 47 e6 d5 3f
       -0.6698249578475952 0.34218019247055054
000050 00 00 00 40 d6 bd db 3f 00 00 00 e0 9b 8c e0 bf
       0.4334617257118225 -0.5171641707420349
000060 00 00 00 00 aa 36 be bf 00 00 00 00 76 6f ad 3f
       -0.11802160739898682 0.0574910044670105
000070 00 00 00 a0 a5 43 e2 bf 00 00 00 c0 92 f7 d8 3f
       -0.5707576870918274 0.39011067152023315
000080 00 00 00 a0 9c 40 d9 bf 00 00 00 00 00 18 ad 3f
       -0.3945685923099518 0.05682373046875
000090 00 00 00 20 f0 34 e6 3f 00 00 00 c0 c7 be de 3f
       0.6939621567726135 0.48039430379867554
0000a0 00 00 00 40 75 ef d8 3f 00 00 00 00 ba da df bf
       0.38961535692214966 -0.4977250099182129
0000b0 00 00 00 e0 80 bb e3 3f 00 00 00 40 11 fe da 3f
       0.6166386008262634 0.4217570424079895
0000c0 00 00 00 60 48 65 e1 3f 00 00 00 00 20 7d 94 bf
       0.543613612651825 -0.020008563995361328
0000d0 00 00 00 60 7c 1e e1 3f 00 00 00 c0 e6 5e df 3f
       0.5349714159965515 0.4901673197746277
0000e0 00 00 00 c0 e4 97 d9 3f 00 00 00 c0 64 45 e4 bf
       0.3998958468437195 -0.633470892906189
0000f0 00 00 00 40 f4 af df 3f 00 00 00 00 46 cc a1 bf
       0.49511438608169556 -0.03476160764694214
000100 00 00 00 80 02 b6 c2 bf 00 00 00 00 00 db a0 bf
       -0.14617949724197388 -0.03292083740234375
000110 00 00 00 40 a8 3d d9 3f 00 00 00 60 72 5f e1 3f
       0.39438825845718384 0.5429012179374695
000120 00 00 00 00 86 5d a8 bf 00 00 00 00 3f 0e c1 3f
       -0.0475885272026062 0.1332472562789917
000130 00 00 00 c0 2d 3c db 3f 00 00 00 00 7c f9 ce 3f
       0.4255480170249939 0.2419886589050293
000140 00 00 00 80 68 c4 ca 3f 00 00 00 20 36 7b e0 3f
       0.20911890268325806 0.5150404572486877
000150 00 00 00 e0 10 1d d4 bf 00 00 00 80 9c 6c ca bf
       -0.31427404284477234 -0.2064395546913147
000160 00 00 00 00 06 da d0 3f 00 00 00 00 da 5b b7 3f
       0.2633070945739746 0.09124529361724854
000170 00 00 00 40 f5 d4 dd 3f 00 00 00 00 10 b6 75 3f
       0.46612292528152466 0.005300581455230713
000180 00 00 00 00 79 d0 bc 3f 00 00 00 e0 3a d2 e3 3f
       0.11255604028701782 0.6194128394126892
000190 00 00 00 e0 72 06 e0 3f 00 00 00 00 69 dc df bf
       0.5007871985435486 -0.49782776832580566
0001a0 00 00 00 00 1f 2e c3 bf 00 00 00 20 d0 7f dc bf
       -0.14984500408172607 -0.4453010857105255
0001b0 00 00 00 00 1e 60 bc 3f 00 00 00 20 20 4f d4 bf
       0.11084163188934326 -0.31732943654060364
0001c0 00 00 00 00 27 63 e1 bf 00 00 00 00 4c ce b0 3f
       -0.5433535575866699 0.06564784049987793
0001d0 00 00 00 e0 ff a3 e4 3f 00 00 00 40 fe 35 d0 3f
       0.6450194716453552 0.2532954812049866
0001e0 00 00 00 c0 e3 1b dd 3f 00 00 00 00 3a 9a e4 bf
       0.4548272490501404 -0.6438264846801758
0001f0 00 00 00 c0 2d 60 e0 bf 00 00 00 c0 da 20 d5 bf
       -0.5117405652999878 -0.33013027906417847
000200 00 00 00 00 60 3a 79 bf 00 00 00 a0 33 70 e5 bf
       -0.006159186363220215 -0.6699464917182922
000210 00 00 00 40 20 7d d8 3f 00 00 00 80 24 3e d9 bf
       0.382637083530426 -0.3944178819656372
000220 00 00 00 c0 61 ce d5 3f 00 00 00 e0 39 3d e4 bf
       0.3407215476036072 -0.632473886013031
000230 00 00 00 20 f8 c4 e5 3f 00 00 00 c0 61 bd dd 3f
       0.6802940964698792 0.4646839499473572
000240 00 00 00 60 ea 63 e0 bf 00 00 00 00 2e 2e bc 3f
       -0.5121967196464539 0.11007964611053467
000250 00 00 00 e0 30 1d e4 bf 00 00 00 00 35 84 b3 3f
       -0.6285633444786072 0.0762360692024231
000260 00 00 00 00 b8 57 87 bf 00 00 00 a0 07 59 dc bf
       -0.011397778987884521 -0.44293394684791565
000270 00 00 00 00 40 1b b0 3f 00 00 00 80 e6 43 d5 bf
       0.06291580200195312 -0.3322693109512329
000280 00 00 00 c0 c0 f3 d7 3f 00 00 00 a0 9e 5e e0 3f
       0.3742524981498718 0.51155024766922
000290 00 00 00 00 6c e0 c0 3f 00 00 00 60 3e 48 e4 3f
       0.13184881210327148 0.6338188052177429
0002a0 00 00 00 e0 5f 74 e4 3f 00 00 00 c0 39 f7 dd bf
       0.6392058730125427 -0.4682144522666931
0002b0 00 00 00 60 e6 72 e3 3f 00 00 00 c0 3c 1a dd 3f
       0.607775866985321 0.4547263979911804
0002c0 00 00 00 a0 3f 5c d4 bf 00 00 00 00 b9 22 ce bf
       -0.31813040375709534 -0.2354346513748169
0002d0 00 00 00 40 b0 59 e3 bf 00 00 00 00 a2 71 b2 3f
       -0.6046983003616333 0.07204639911651611
0002e0 00 00 00 00 24 44 93 bf 00 00 00 00 6f 02 bc bf
       -0.01881462335586548 -0.10941213369369507
0002f0 00 00 00 00 9d 0a c8 3f 00 00 00 60 de 4f e1 3f
       0.18782389163970947 0.5409995913505554
000300 00 00 00 80 a9 5e cf 3f 00 00 00 c0 b6 8b cb bf
       0.24507635831832886 -0.2152012288570404
000310 00 00 00 80 ee 44 cb 3f 00 00 00 80 0a 0d ca 3f
       0.21304112672805786 0.20352298021316528
000320 00 00 00 00 d4 a0 a4 3f 00 00 00 a0 c6 87 e6 bf
       0.04028952121734619 -0.7040742039680481
000330 00 00 00 80 cd 69 cb 3f 00 00 00 20 49 9e da bf
       0.21416634321212769 -0.4159109890460968
000340 00 00 00 c0 7f ec de 3f 00 00 00 c0 69 20 d4 3f
       0.4831847548484802 0.31447833776474
000350 00 00 00 00 48 84 8d bf 00 00 00 20 68 b7 e0 3f
       -0.014412462711334229 0.5223885178565979
000360 00 00 00 40 b0 d2 d4 3f 00 00 00 60 31 8b d7 bf
       0.32535940408706665 -0.36787065863609314
000370 00 00 00 e0 bf 66 e5 bf 00 00 00 00 60 8b aa 3f
       -0.6687926650047302 0.05184459686279297
000380 00 00 00 e0 92 32 e2 3f 00 00 00 40 31 c6 d9 3f
       0.5686735510826111 0.40272170305252075
000390 00 00 00 00 33 a2 b7 bf 00 00 00 00 88 33 d2 bf
       -0.09231871366500854 -0.2843952178955078
0003a0 00 00 00 e0 c5 0f e2 3f 00 00 00 60 1d 24 e2 3f
       0.5644254088401794 0.5669085383415222
0003b0 00 00 00 a0 02 15 e6 3f 00 00 00 00 4a 92 e3 bf
       0.6900647282600403 -0.611607551574707
0003c0 00 00 00 c0 f7 fd e3 bf 00 00 00 00 10 2d a1 bf
       -0.6247519254684448 -0.03354692459106445
0003d0 00 00 00 e0 e8 65 e5 3f 00 00 00 20 8f 26 e3 bf
       0.6686901450157166 -0.5984569191932678
0003e0 00 00 00 c0 ab 5b de 3f 00 00 00 e0 85 05 e0 3f
       0.4743451476097107 0.5006741881370544
0003f0 00 00 00 20 fc c8 e5 3f 00 00 00 c0 f3 6b de 3f
       0.680784285068512 0.475338876247406
000400 00 00 00 00 c4 82 9f 3f 00 00 00 80 c6 cb e3 bf
       0.030772268772125244 -0.6186249256134033
000410 00 00 00 e0 04 92 d0 bf 00 00 00 00 5d 00 b3 bf
       -0.2589122951030731 -0.07422429323196411
000420 00 00 00 60 ee 02 e6 3f 00 00 00 40 46 43 e2 bf
       0.6878578066825867 -0.5707122087478638
000430 00 00 00 40 87 d7 da 3f 00 00 00 40 ea 52 d8 3f
       0.4194048047065735 0.38006073236465454
000440 00 00 00 40 be c9 d6 3f 00 00 00 00 d7 db e1 bf
       0.3560634255409241 -0.5580859184265137
000450 00 00 00 e0 20 f3 e1 bf 00 00 00 c0 7c 4d d2 3f
       -0.5609287619590759 0.2859794497489929
000460 00 00 00 20 3d 11 e1 3f 00 00 00 e0 e3 2e e2 bf
       0.5333543419837952 -0.5682238936424255
000470 00 00 00 80 bf 1b e5 bf 00 00 00 00 da 15 b2 bf
       -0.6596372127532959 -0.07064592838287354
000480 00 00 00 60 cf 9c e2 bf 00 00 00 c0 8a 4f d5 3f
       -0.5816418528556824 0.33297985792160034
000490 00 00 00 00 18 27 ca 3f 00 00 00 a0 b8 4d e6 3f
       0.20431804656982422 0.6969874501228333
0004a0 00 00 00 c0 47 aa d4 3f 00 00 00 00 1a 39 cb 3f
       0.32289308309555054 0.21268010139465332
0004b0 00 00 00 a0 44 fe e2 3f 00 00 00 20 cc a3 e4 bf
       0.5935385823249817 -0.6449947953224182
0004c0 00 00 00 e0 d1 14 e6 3f 00 00 00 00 af 53 c3 3f
       0.6900414824485779 0.1509913206100464
0004d0 00 00 00 c0 a8 f9 e2 bf 00 00 00 00 b0 19 ae 3f
       -0.5929759740829468 0.058789730072021484
0004e0 00 00 00 80 d7 69 ca 3f 00 00 00 80 17 d7 e0 bf
       0.2063550353050232 -0.5262563228607178
0004f0 00 00 00 80 f2 4e c5 3f 00 00 00 20 c7 f2 e4 3f
       0.16647177934646606 0.6546359658241272
000500 00 00 00 00 fa cd b0 bf 00 00 00 a0 ff c8 d6 bf
       -0.06564295291900635 -0.35601797699928284
000510 00 00 00 e0 fd b0 e3 3f 00 00 00 00 9e b7 a0 3f
       0.6153554320335388 0.032650887966156006
000520 00 00 00 00 64 7d c9 bf 00 00 00 00 95 49 c3 3f
       -0.19913911819458008 0.15068304538726807
000530 00 00 00 00 7f 40 cf 3f 00 00 00 a0 c8 63 e6 3f
       0.24415576457977295 0.6996806263923645
000540 00 00 00 00 e7 30 b3 bf 00 00 00 80 fb a5 df bf
       -0.07496494054794312 -0.49450576305389404
000550 00 00 00 40 55 06 d2 bf 00 00 00 a0 1d 20 e4 3f
       -0.2816365361213684 0.6289203763008118
000560 00 00 00 00 88 e4 80 3f 00 00 00 40 86 b9 ce bf
       0.008248388767242432 -0.2400367558002472
000570 00 00 00 c0 86 3c d8 bf 00 00 00 00 40 26 c2 3f
       -0.37869423627853394 0.14179229736328125
000580 00 00 00 c0 d5 67 da 3f 00 00 00 c0 f6 7a cc bf
       0.41258758306503296 -0.22250255942344666
000590 00 00 00 40 32 20 e0 bf 00 00 00 40 e4 09 d2 3f
       -0.5039302110671997 0.28185373544692993
0005a0 00 00 00 20 94 e8 e4 bf 00 00 00 e0 9a 40 e2 bf
       -0.6533909440040588 -0.5703863501548767
0005b0 00 00 00 40 05 ec d9 3f 00 00 00 00 50 c1 8b 3f
       0.4050305485725403 0.013552308082580566
0005c0 00 00 00 40 40 8f de 3f 00 00 00 00 cc 95 90 3f
       0.4774933457374573 0.01619642972946167
0005d0 00 00 00 00 c2 0a c3 3f 00 00 00 00 44 d7 9a 3f
       0.14876580238342285 0.026211798191070557
0005e0 00 00 00 c0 dc 17 d4 3f 00 00 00 c0 71 a0 cf bf
       0.31395643949508667 -0.2470838725566864
0005f0 00 00 00 00 6f a3 e0 bf 00 00 00 e0 06 8b e5 3f
       -0.5199503898620605 0.6732210516929626
000600 00 00 00 00 90 da cf 3f 00 00 00 20 a4 91 e3 3f
       0.2488574981689453 0.6115284562110901
000610 00 00 00 00 05 0a bd bf 00 00 00 c0 17 4f dc 3f
       -0.11343413591384888 0.44232743978500366
000620 00 00 00 c0 af cf d4 3f 00 00 00 40 d5 19 d0 3f
       0.3251761794090271 0.2515767216682434
000630 00 00 00 40 bb d8 e0 bf 00 00 00 00 80 b4 cf 3f
       -0.5264564752578735 0.2476959228515625
000640 00 00 00 40 6e 0c df 3f 00 00 00 80 83 31 d8 bf
       0.48513370752334595 -0.37802207469940186
000650 00 00 00 00 33 8b cb bf 00 00 00 40 d9 f6 de 3f
       -0.2151855230331421 0.4838164448738098
000660 00 00 00 80 e4 33 e0 bf 00 00 00 c0 08 a9 cd bf
       -0.5063345432281494 -0.23172101378440857
000670 00 00 00 00 f9 b8 d1 bf 00 00 00 c0 91 5d d1 3f
       -0.2769148349761963 0.27133601903915405
000680 00 00 00 40 98 cb d2 3f 00 00 00 40 f2 cb de bf
       0.2936764359474182 -0.48119789361953735
000690 00 00 00 00 38 99 bb bf 00 00 00 00 60 85 7b bf
       -0.10780668258666992 -0.006718993186950684
0006a0 00 00 00 20 a5 6e e0 3f 00 00 00 c0 30 72 d5 3f
       0.5135064721107483 0.3350946307182312
0006b0 00 00 00 c0 05 21 e1 bf 00 00 00 80 c3 66 e0 bf
       -0.5352810621261597 -0.5125443935394287
0006c0 00 00 00 20 aa 35 e4 3f 00 00 00 c0 7f aa d1 bf
       0.6315508484840393 -0.2760314345359802
0006d0 00 00 00 c0 06 0d ce bf 00 00 00 40 62 81 dd bf
       -0.23477253317832947 -0.46102195978164673
0006e0 00 00 00 60 05 64 d4 bf 00 00 00 c0 54 9c d7 3f
       -0.31860479712486267 0.36891669034957886
0006f0 00 00 00 a0 10 58 e0 3f 00 00 00 c0 ef 84 d3 3f
       0.5107501149177551 0.3049888014793396
000700 00 00 00 80 19 51 dc bf 00 00 00 c0 75 30 db 3f
       -0.4424499273300171 0.4248327612876892
000710 00 00 00 20 db 1f e2 3f 00 00 00 40 97 68 d9 bf
       0.5663886666297913 -0.3970087170600891
000720 00 00 00 00 64 47 a2 3f 00 00 00 40 36 a7 d9 3f
       0.03570091724395752 0.40083080530166626
000730 00 00 00 60 7e b4 e1 3f 00 00 00 00 08 af 99 3f
       0.5532829165458679 0.025081753730773926
000740 00 00 00 c0 65 6b e3 bf 00 00 00 40 1a 39 d7 bf
       -0.6068600416183472 -0.3628602623939514
000750 00 00 00 00 cd 65 c3 3f 00 00 00 20 81 65 e4 bf
       0.1515442132949829 -0.637390673160553
000760 00 00 00 00 73 f0 c3 3f 00 00 00 c0 bf de e1 bf
       0.15577542781829834 -0.5584410429000854
000770 00 00 00 c0 75 9a e6 bf 00 00 00 60 3a 82 df bf
       -0.7063549757003784 -0.49232348799705505
000780 00 00 00 00 38 06 dd bf 00 00 00 40 70 c6 e0 bf
       -0.4535045623779297 -0.5242234468460083
000790 00 00 00 00 a2 8f bc bf 00 00 00 c0 a3 00 d6 3f
       -0.11156666278839111 0.3437890410423279
0007a0 00 00 00 60 6b 6d e0 bf 00 00 00 c0 ac 0c d7 bf
       -0.5133568644523621 -0.3601486086845398
0007b0 00 00 00 20 6c b8 e1 3f 00 00 00 e0 4d 1a e0 3f
       0.5537624955177307 0.5032109618186951
0007c0 00 00 00 40 b4 ca d4 3f 00 00 00 00 1c a3 af 3f
       0.32487207651138306 0.061791300773620605
0007d0 00 00 00 e0 5e 9d e6 3f 00 00 00 a0 1d 12 e3 bf
       0.7067102789878845 -0.5959613919258118
0007e0 00 00 00 80 89 1e d6 bf 00 00 00 00 c1 31 b7 3f
       -0.34561383724212646 0.09060293436050415
0007f0 00 00 00 c0 85 c6 cd bf 00 00 00 20 f0 0d e6 3f
       -0.23262092471122742 0.6892014145851135

encoder_layer.linear2.weight f8 [2, 2048]
000000 00 00 00 c0 2e 61 87 3f 00 00 00 00 f0 eb 41 3f
       0.011415829882025719 0.0005469247698783875
000010 00 00 00 20 74 26 96 3f 00 00 00 00 6c 34 8c bf
       0.021631063893437386 -0.013771861791610718
000020 00 00 00 00 19 9b 6b bf 00 00 00 40 7b 91 7d bf
       -0.003369854763150215 -0.007218820042908192
000030 00 00 00 00 8b 4f 64 bf 00 00 00 60 0d 81 96 bf
       -0.00247933529317379 -0.021976670250296593
000040 00 00 00 00 cc 66 76 3f 00 00 00 40 60 1b 8e 3f
       0.005469128489494324 0.014700653031468391
000050 00 00 00 c0 d6 54 8b 3f 00 00 00 20 48 34 94 3f
       0.01334541104733944 0.019730689004063606
000060 00 00 00 00 64 74 7f 3f 00 00 00 60 e9 dd 93 3f
       0.007679358124732971 0.01940121315419674
000070 00 00 00 60 bb 04 90 3f 00 00 00 00 30 d7 63 3f
       0.015643050894141197 0.002421945333480835
000080 00 00 00 c0 2e 53 91 bf 00 00 00 40 c2 04 83 bf
       -0.016918879002332687 -0.009286420419812202
000090 00 00 00 20 18 f7 92 3f 00 00 00 80 22 9a 7c 3f
       0.018520714715123177 0.0069829318672418594
0000a0 00 00 00 c0 66 b1 86 3f 00 00 00 20 50 be 91 3f
       0.011080553755164146 0.017327548936009407
0000b0 00 00 00 c0 b6 65 8e 3f 00 00 00 00 98 42 90 bf
       0.01484244130551815 -0.015879034996032715
0000c0 00 00 00 c0 c4 5a 8d 3f 00 00 00 40 da 51 95 bf
       0.01433328352868557 -0.020820055156946182
0000d0 00 00 00 00 c4 9f 4d bf 00 00 00 60 b9 91 91 3f
       -0.0009040553122758865 0.017157455906271935
0000e0 00 00 00 80 fc f9 7f 3f 00 00 00 40 f2 01 95 bf
       0.007806764915585518 -0.020515237003564835
0000f0 00 00 00 40 c4 d2 8d 3f 00 00 00 c0 71 36 88 3f
       0.014562161639332771 0.011822594329714775
000100 00 00 00 20 68 0f 88 bf 00 00 00 c0 c4 c2 90 bf
       -0.011748136021196842 -0.01636798307299614
000110 00 00 00 c0 db 5e 87 3f 00 00 00 60 b6 9e 95 3f
       0.011411396786570549 0.021113252267241478
000120 00 00 00 40 57 72 7b bf 00 00 00 e0 72 65 91 3f
       -0.006700840778648853 0.016988558694720268
000130 00 00 00 00 f2 70 65 bf 00 00 00 40 5a c1 84 3f
       -0.002617333084344864 0.010134415701031685
000140 00 00 00 e0 f0 d5 8d bf 00 00 00 00 60 ea 36 bf
       -0.014568216167390347 -0.0003496631979942322
000150 00 00 00 20 23 c6 94 3f 00 00 00 20 2d f8 92 3f
       0.020287083461880684 0.018524842336773872
000160 00 00 00 a0 e4 14 92 3f 00 00 00 c0 be 33 8a 3f
       0.017657825723290443 0.0127940084785223
000170 00 00 00 40 13 b2 8f bf 00 00 00 40 2b 93 7d bf
       -0.015476370230317116 -0.007220429368317127
000180 00 00 00 a0 6b dc 91 bf 00 00 00 80 cd 0c 7e bf
       -0.017442399635910988 -0.007336428388953209
000190 00 00 00 80 0d 97 71 bf 00 00 00 80 7a 9c 78 3f
       -0.004294445738196373 0.006008604541420937
0001a0 00 00 00 00 c6 03 5a bf 00 00 00 40 b3 89 89 3f
       -0.0015878137201070786 0.012469673529267311
0001b0 00 00 00 80 00 75 86 bf 00 00 00 00 c7 db 63 bf
       -0.010965351015329361 -0.0024241339415311813
0001c0 00 00 00 80 3f 1a 87 bf 00 00 00 60 5c 60 93 3f
       -0.01128053292632103 0.01892227493226528
0001d0 00 00 00 40 b7 26 8f 3f 00 00 00 00 b4 db 52 3f
       0.015210563316941261 0.001151014119386673
0001e0 00 00 00 00 28 f7 32 bf 00 00 00 c0 e2 72 80 bf
       -0.00028938986361026764 -0.008031627163290977
0001f0 00 00 00 c0 4e c9 87 3f 00 00 00 c0 29 54 8c 3f
       0.01161443255841732 0.013832403346896172
000200 00 00 00 00 f4 55 91 bf 00 00 00 00 9f 26 75 bf
       -0.016929447650909424 -0.005163785070180893
000210 00 00 00 40 f6 12 80 3f 00 00 00 c0 a9 1f 84 3f
       0.007848666980862617 0.009826017543673515
000220 00 00 00 e0 bd 8c 89 bf 00 00 00 40 f9 0b 7d bf
       -0.012475474737584591 -0.00709149707108736
000230 00 00 00 40 b9 a3 88 bf 00 00 00 00 58 bf 5d 3f
       -0.012031028047204018 0.0018156394362449646
000240 00 00 00 40 f8 6b 8b 3f 00 00 00 00 f9 9e 96 bf
       0.013389529660344124 -0.022090807557106018
000250 00 00 00 c0 ed b6 84 3f 00 00 00 80 eb d1 7d 3f
       0.010114533826708794 0.007280273362994194
000260 00 00 00 60 70 2d 91 3f 00 00 00 00 25 57 7e 3f
       0.016774898394942284 0.007407326251268387
000270 00 00 00 a0 dd 03 93 3f 00 00 00 00 22 ec 6d bf
       0.01856943406164646 -0.0036526359617710114
000280 00 00 00 00 7a 3f 68 bf 00 00 00 00 bd 89 7b 3f
       -0.002959955483675003 0.0067231543362140656
000290 00 00 00 00 38 e5 41 bf 00 00 00 c0 9e 5f 91 bf
       -0.0005461238324642181 -0.0169663242995739
0002a0 00 00 00 20 51 79 84 bf 00 00 00 e0 af 32 93 3f
       -0.009997018612921238 0.018748043105006218
0002b0 00 00 00 e0 39 b9 95 bf 00 00 00 a0 1f 38 94 3f
       -0.02121439389884472 0.019745344296097755
0002c0 00 00 00 c0 f5 16 89 bf 00 00 00 00 76 8d 56 3f
       -0.012250823900103569 0.001376500353217125
0002d0 00 00 00 e0 4a b8 89 bf 00 00 00 c0 36 79 85 bf
       -0.012558541260659695 -0.010485103353857994
0002e0 00 00 00 00 1b e2 89 bf 00 00 00 c0 6b 96 84 3f
       -0.012638293206691742 0.010052530094981194
0002f0 00 00 00 00 46 8a 81 3f 00 00 00 60 9f 64 92 bf
       0.00856451690196991 -0.01796196959912777
000300 00 00 00 80 c1 68 74 3f 00 00 00 80 a1 65 79 3f
       0.004982715472579002 0.006200438365340233
000310 00 00 00 20 37 d7 91 3f 00 00 00 00 f4 ad 41 3f
       0.017422543838620186 0.0005395356565713882
000320 00 00 00 c0 cf 2e 87 3f 00 00 00 a0 d6 d3 93 bf
       0.011319754645228386 -0.019362786784768105
000330 00 00 00 c0 f7 20 87 3f 00 00 00 00 6c bd 44 3f
       0.011293349787592888 0.0006329324096441269
000340 00 00 00 00 96 7c 72 3f 00 00 00 00 43 34 6e bf
       0.004513345658779144 -0.003687029704451561
000350 00 00 00 80 04 5f 90 bf 00 00 00 20 10 3e 94 3f
       -0.015987463295459747 0.019768001511693
000360 00 00 00 00 65 30 65 3f 00 00 00 80 4e a1 7e 3f
       0.0025865528732538223 0.0074780527502298355
000370 00 00 00 00 30 e7 6c 3f 00 00 00 80 39 44 7f bf
       0.003528207540512085 -0.0076334234327077866
000380 00 00 00 e0 ca c5 90 bf 00 00 00 00 61 f1 71 3f
       -0.016379518434405327 0.004380587488412857
000390 00 00 00 40 7e 44 90 bf 00 00 00 00 11 df 73 3f
       -0.015886280685663223 0.004851404577493668
0003a0 00 00 00 80 d8 20 83 bf 00 00 00 00 6b 75 74 3f
       -0.009339991956949234 0.004994791001081467
0003b0 00 00 00 60 49 d0 94 3f 00 00 00 60 73 d6 89 bf
       0.0203258004039526 -0.012616063468158245
0003c0 00 00 00 e0 3d f0 91 3f 00 00 00 00 c8 75 36 bf
       0.01751801185309887 -0.0003427136689424515
0003d0 00 00 00 00 80 c0 76 3f 00 00 00 00 3a db 6d 3f
       0.005554676055908203 0.0036445744335651398
0003e0 00 00 00 a0 4c aa 8e bf 00 00 00 c0 1d 7e 84 bf
       -0.014973257668316364 -0.010006172582507133
0003f0 00 00 00 a0 37 8c 92 3f 00 00 00 40 de 5c 88 bf
       0.018113011494278908 -0.011895881965756416
000400 00 00 00 e0 38 6d 91 3f 00 00 00 80 c8 b3 94 bf
       0.017018212005496025 -0.02021706849336624
000410 00 00 00 00 a8 f9 62 3f 00 00 00 e0 d1 81 91 3f
       0.002316311001777649 0.017096785828471184
000420 00 00 00 00 9f 1b 7d bf 00 00 00 00 83 d9 67 bf
       -0.007106419652700424 -0.0029113348573446274
000430 00 00 00 00 0c 8f 72 bf 00 00 00 00 a0 18 75 bf
       -0.004530951380729675 -0.005150437355041504
000440 00 00 00 00 97 44 81 3f 00 00 00 00 af ac 68 bf
       0.008431605994701385 -0.003012029454112053
000450 00 00 00 00 44 6b 48 bf 00 00 00 20 71 eb 93 3f
       -0.0007452089339494705 0.01945282705128193
000460 00 00 00 00 f4 8f 51 3f 00 00 00 20 9f 73 84 bf
       0.0010719187557697296 -0.009986155666410923
000470 00 00 00 80 c1 b3 81 3f 00 00 00 e0 c8 bb 93 3f
       0.008643638342618942 0.01927102915942669
000480 00 00 00 80 67 b0 74 bf 00 00 00 40 99 05 84 3f
       -0.005051044747233391 0.009776303544640541
000490 00 00 00 60 fc c9 8b bf 00 00 00 e0 13 29 92 3f
       -0.013568851165473461 0.017734823748469353
0004a0 00 00 00 00 26 0b 60 bf 00 00 00 e0 9d 3c 85 bf
       -0.001958440989255905 -0.01036952342838049
0004b0 00 00 00 80 6f 48 76 bf 00 00 00 00 ff c9 65 bf
       -0.0054401736706495285 -0.002659795805811882
0004c0 00 00 00 e0 f2 61 82 bf 00 00 00 60 3b 75 96 3f
       -0.00897588487714529 0.02193157933652401
0004d0 00 00 00 00 da 71 53 3f 00 00 00 80 c2 ae 7d bf
       0.0011868122965097427 -0.007246742025017738
0004e0 00 00 00 80 e2 b8 84 bf 00 00 00 80 3e c7 77 3f
       -0.010118264704942703 0.005805248394608498
0004f0 00 00 00 00 e0 b0 72 bf 00 00 00 a0 5a c8 93 bf
       -0.0045632123947143555 -0.019318977370858192
000500 00 00 00 e0 85 1a 88 bf 00 00 00 40 5e ca 8b bf
       -0.011769338510930538 -0.013569580391049385
000510 00 00 00 c0 95 56 8e 3f 00 00 00 e0 5e cc 95 bf
       0.014813585206866264 -0.021287424489855766
000520 00 00 00 00 e8 a2 83 bf 00 00 00 a0 52 9f 84 bf
       -0.009588062763214111 -0.010069509036839008
000530 00 00 00 c0 9a 3b 8e 3f 00 00 00 00 dc 34 4a bf
       0.014762124046683311 -0.0007997583597898483
000540 00 00 00 60 15 7a 88 bf 00 00 00 00 40 b0 27 bf
       -0.011951605789363384 -0.0001807287335395813
000550 00 00 00 60 fe 23 85 bf 00 00 00 80 1c 74 74 3f
       -0.01032255869358778 0.004993544891476631
000560 00 00 00 20 f1 43 80 bf 00 00 00 e0 34 38 90 3f
       -0.00794208887964487 0.015839410945773125
000570 00 00 00 60 1f 0f 83 bf 00 00 00 40 49 e7 88 3f
       -0.009306187741458416 0.012159893289208412
000580 00 00 00 80 b0 06 8e bf 00 00 00 00 a6 49 64 3f
       -0.014661196619272232 0.0024765245616436005
000590 00 00 00 c0 26 3f 87 bf 00 00 00 00 c3 7b 73 bf
       -0.011350920423865318 -0.004756700247526169
0005a0 00 00 00 60 bd 2a 92 3f 00 00 00 00 83 c2 7f 3f
       0.017741164192557335 0.007753860205411911
0005b0 00 00 00 a0 ca 54 92 bf 00 00 00 00 dc c3 7a 3f
       -0.017901578918099403 0.00653444230556488
0005c0 00 00 00 00 95 75 60 3f 00 00 00 e0 21 06 92 3f
       0.002009192481637001 0.01760151796042919
0005d0 00 00 00 e0 8f f1 88 bf 00 00 00 e0 f6 27 91 bf
       -0.012179492972791195 -0.016754014417529106
0005e0 00 00 00 40 1f c5 88 3f 00 00 00 00 57 88 6b 3f
       0.012094730511307716 0.003360910341143608
0005f0 00 00 00 c0 09 b4 80 3f 00 00 00 40 24 83 96 bf
       0.00815589539706707 -0.021984640508890152
000600 00 00 00 00 99 23 86 bf 00 00 00 e0 ce a8 85 bf
       -0.010810084640979767 -0.010575882159173489
000610 00 00 00 a0 7b 3b 94 3f 00 00 00 e0 b0 b7 93 3f
       0.019758159294724464 0.019255412742495537
000620 00 00 00 00 62 4e 52 3f 00 00 00 e0 db cd 95 3f
       0.0011173207312822342 0.021293101832270622
000630 00 00 00 e0 be b6 91 bf 00 00 00 80 bf 14 82 3f
       -0.017298681661486626 0.008828636258840561
000640 00 00 00 c0 1a b5 87 3f 00 00 00 80 7b c0 91 bf
       0.01157589815557003 -0.01733582466840744
000650 00 00 00 80 05 9a 7a bf 00 00 00 00 6c ed 75 3f
       -0.006494542583823204 0.005353376269340515
000660 00 00 00 20 c4 df 94 3f 00 00 00 80 a1 1f 80 3f
       0.02038484998047352 0.00787283107638359
000670 00 00 00 00 d7 8d 60 3f 00 00 00 00 a0 79 23 bf
       0.0020207595080137253 -0.00014858320355415344
000680 00 00 00 40 2e 14 88 3f 00 00 00 80 47 e1 88 bf
       0.011757241562008858 -0.012148436158895493
000690 00 00 00 c0 0c 76 88 3f 00 00 00 40 70 9e 84 3f
       0.011943912133574486 0.01006782241165638
0006a0 00 00 00 60 14 3c 95 bf 00 00 00 00 35 39 94 bf
       -0.020736997947096825 -0.0197494775056839
0006b0 00 00 00 00 0f 23 7c 3f 00 00 00 40 0d 44 8b 3f
       0.006869371980428696 0.01331339217722416
0006c0 00 00 00 00 52 e8 7c 3f 00 00 00 c0 31 89 7a bf
       0.007057495415210724 -0.006478494964540005
0006d0 00 00 00 00 8b a6 95 bf 00 00 00 40 89 d7 8b 3f
       -0.021143123507499695 0.013594696298241615
0006e0 00 00 00 40 67 52 8a 3f 00 00 00 40 ac 03 81 3f
       0.012852484360337257 0.008307786658406258
0006f0 00 00 00 40 3c c8 87 3f 00 00 00 c0 2e 69 80 3f
       0.011612387374043465 0.008013119921088219
000700 00 00 00 c0 c8 83 8c 3f 00 00 00 40 a3 b6 83 3f
       0.01392323337495327 0.009625697508454323
000710 00 00 00 60 14 b4 88 bf 00 00 00 40 2f fb 94 bf
       -0.012062224559485912 -0.020489443093538284
000720 00 00 00 c0 3e 43 83 bf 00 00 00 c0 78 b0 8b bf
       -0.009405603632330894 -0.013520186766982079
000730 00 00 00 00 00 8b 0b bf 00 00 00 00 b4 a3 4c bf
       -5.253404378890991e-05 -0.0008740071207284927
000740 00 00 00 80 7a 4a 7f bf 00 00 00 60 97 0b 96 3f
       -0.007639387622475624 0.021528592333197594
000750 00 00 00 00 80 94 7a 3f 00 00 00 80 e0 5b 76 bf
       0.006489276885986328 -0.0054587144404649734
000760 00 00 00 c0 ec a6 95 bf 00 00 00 a0 77 85 8c bf
       -0.021144580096006393 -0.01392644364386797
000770 00 00 00 c0 71 ee 8f 3f 00 00 00 80 c3 ff 70 bf
       0.015591515228152275 -0.004150165244936943
000780 00 00 00 c0 a7 1c 8f 3f 00 00 00 c0 a7 9d 94 bf
       0.015191374346613884 -0.020132657140493393
000790 00 00 00 e0 47 57 90 3f 00 00 00 c0 b1 44 8d 3f
       0.015957949683070183 0.014291180297732353
0007a0 00 00 00 e0 6c 24 93 3f 00 00 00 c0 ee 68 80 3f
       0.01869363896548748 0.008012643083930016
0007b0 00 00 00 e0 16 c4 95 3f 00 00 00 a0 9f 8b 8b bf
       0.02125583402812481 -0.013449904508888721
0007c0 00 00 00 a0 eb f1 92 3f 00 00 00 40 bc 5a 8b 3f
       0.018500978127121925 0.013356657698750496
0007d0 00 00 00 a0 4d 3c 8a bf 00 00 00 00 d8 84 63 bf
       -0.012810331769287586 -0.0023826807737350464
0007e0 00 00 00 00 10 da 2c 3f 00 00 00 00 dc 64 55 bf
       0.0002201218158006668 -0.0013057850301265717
0007f0 00 00 00 e0 96 e4 94 3f 00 00 00 00 80 86 1d 3f
       0.020403249189257622 0.00011263042688369751

encoder_layer.linear2.bias f8 [2]
000000 00 00 00 00 0d 54 63 3f 00 00 00 c0 be 2c 96 bf
       0.0023594144731760025 -0.021655064076185226

encoder_layer.norm1.weight f8 [2]
000000 00 00 00 00 00 00 f0 3f 00 00 00 00 00 00 f0 3f
       1.0 1.0

encoder_layer.norm1.bias f8 [2]
000000 00 00 00 00 00 00 00 00 00 00 00 00 00 00 00 00
       0.0 0.0

encoder_layer.norm2.weight f8 [2]
000000 00 00 00 00 00 00 f0 3f 00 00 00 00 00 00 f0 3f
       1.0 1.0

encoder_layer.norm2.bias f8 [2]
000000 00 00 00 00 00 00 00 00 00 00 00 00 00 00 00 00
       0.0 0.0

transformer_encoder.layers.0.self_attn.in_proj_weight f8 [6, 2]
000000 00 00 00 c0 97 8f d2 3f 00 00 00 80 ca d2 cd 3f
       0.29001420736312866 0.23299533128738403
000010 00 00 00 00 14 eb e8 bf 00 00 00 40 9d d2 dc bf
       -0.7786960601806641 -0.4503548741340637
000020 00 00 00 00 ac d1 b2 3f 00 00 00 60 87 bb e5 bf
       0.07351183891296387 -0.6791417002677917
000030 00 00 00 00 62 7f c8 bf 00 00 00 20 f2 1d e6 3f
       -0.19138741493225098 0.6911554932594299
000040 00 00 00 40 a3 1f e2 bf 00 00 00 40 a6 e6 d2 3f
       -0.5663620233535767 0.29532772302627563
000050 00 00 00 e0 6d 01 e7 bf 00 00 00 e0 84 77 e5 3f
       -0.7189244627952576 0.6708397269248962

transformer_encoder.layers.0.self_attn.in_proj_bias f8 [6]
000000 7a 05 f3 86 84 8b d2 3a 6c fc d0 8f 82 84 c0 ba
       2.3968839026441837e-25 -1.0674259941853548e-25
000010 60 79 53 49 61 b6 c9 b7 2e ed 9f 9d 78 bb be b7
       -5.903282573311276e-40 -3.527896079311567e-40
000020 77 57 ba 50 0b ce a1 bc 27 4c 18 b4 6c 9e 7c bc
       -1.235460356133014e-16 -2.4822892165127235e-17

transformer_encoder.layers.0.self_attn.out_proj.weight f8 [2, 2]
000000 00 00 00 40 47 ec dc 3f 00 00 00 a0 b6 c5 e4 3f
       0.451921284198761 0.6491349339485168
000010 00 00 00 40 6e 67 e5 bf 00 00 00 c0 e6 21 db 3f
       -0.6688758134841919 0.4239441752433777

transformer_encoder.layers.0.self_attn.out_proj.bias f8 [2]
000000 e5 a2 49 76 93 c5 9f bc e3 a2 49 76 93 c5 9f 3c
       -1.102305099368215e-16 1.1023050993682147e-16
