save_model/best_train_44.pth (torch, 345551 bytes, 50 tensors)

encoder_layer.self_attn.in_proj_weight f8 [6, 2]
0	0x3fd812c140000000	0.3761447072029114
1	0xbfb475da00000000	-0.07992327213287354
2	0x3fe1dca820000000	0.5581856369972229
3	0x3fba6a1800000000	0.10318136215209961
4	0x3fe7210320000000	0.7227798104286194
5	0xbfae2bde00000000	-0.05892843008041382
6	0xbfd80d0d20000000	-0.3757965862751007
7	0x3fe55554a0000000	0.6666663289070129
8	0xbfa4eb3a00000000	-0.040857136249542236
9	0x3fd50d0bc0000000	0.32892125844955444
10	0x3f9d66c400000000	0.028712332248687744
11	0xbfe2aa2c20000000	-0.5832729935646057

encoder_layer.self_attn.in_proj_bias f8 [6]
0	0x0000000000000000	0.0
1	0x0000000000000000	0.0
2	0x0000000000000000	0.0
3	0x0000000000000000	0.0
4	0x0000000000000000	0.0
5	0x0000000000000000	0.0

encoder_layer.self_attn.out_proj.weight f8 [2, 2]
0	0xbfde4ee9a0000000	-0.4735664427280426
1	0xbfd6997760000000	-0.35311684012413025
2	0xbfd5851960000000	-0.3362487256526947
3	0x3fe37e0fa0000000	0.6091383099555969

encoder_layer.self_attn.out_proj.bias f8 [2]
0	0x0000000000000000	0.0
1	0x0000000000000000	0.0

encoder_layer.linear1.weight f8 [2048, 2]
0	0xbfcfc09a00000000	-0.24806523323059082
1	0xbfcbb2bec0000000	-0.2163923680782318
2	0xbfd87fb940000000	-0.38279563188552856
3	0x3fa87d6200000000	0.047831594944000244
4	0x3fe68bf1e0000000	0.7045831084251404
5	0xbfcaef61c0000000	-0.2104303538799286
6	0x3fdf3a9440000000	0.4879503846168518
7	0xbfe44ca520000000	-0.6343560814857483
8	0x3f58240000000000	0.0014734268188476562
9	0xbfdea87780000000	-0.47903239727020264
10	0x3fe0010020000000	0.5001221299171448
11	0x3fd50110c0000000	0.32819002866744995
12	0x3fd8d2bdc0000000	0.3878626227378845
13	0xbfdeb8e060000000	-0.4800339639186859
14	0xbfe4522140000000	-0.6350256204605103
15	0xbfe43416c0000000	-0.6313585042953491
16	0x3fd42ce8c0000000	0.3152410387992859
17	0x3fdca18540000000	0.4473584294319153
18	0xbfe3d5b4a0000000	-0.6198371052742004
19	0x3fe5e069a0000000	0.6836441159248352
20	0xbfe53567c0000000	-0.6627691984176636
21	0x3fd4d6cdc0000000	0.32561057806015015
22	0x3fe10e1b60000000	0.5329720377922058
23	0xbfbc879d00000000	-0.11144429445266724
24	0x3fe5e9b0a0000000	0.6847766041755676
25	0x3fc179ca00000000	0.13652920722961426
26	0xbfe475e040000000	-0.639389157295227
27	0xbfe3a3b100000000	-0.613731861114502
28	0xbfd8785940000000	-0.3823454976081848
29	0xbfdbec5d60000000	-0.4363015592098236
30	0x3fdfcd4ac0000000	0.49690502882003784
31	0x3fccfaa280000000	0.226398766040802
32	0x3fe09093e0000000	0.5176486372947693
33	0x3f63f72000000000	0.0024371743202209473
34	0x3fb3100b00000000	0.07446354627609253
35	0xbfd01e4fe0000000	-0.25185009837150574
36	0xbfcb21bd00000000	-0.2119671106338501
37	0xbfe685edc0000000	-0.7038487195968628
38	0x3fcc55c500000000	0.2213674783706665
39	0xbfb201a100000000	-0.07033735513687134
40	0x3fa4033600000000	0.039086997509002686
41	0x3fcacecd80000000	0.20943611860275269
42	0x3fd6faafc0000000	0.3590506911277771
43	0xbfe3d1d1c0000000	-0.6193627119064331
44	0xbfd27f7cc0000000	-0.2890312075614929
45	0xbfd886fac0000000	-0.3832384943962097
46	0xbfe4108d20000000	-0.6270204186439514
47	0xbfd4226a80000000	-0.3146005868911743
48	0xbfca95abc0000000	-0.20769259333610535
49	0x3facb66800000000	0.05607914924621582
50	0xbfd29e58e0000000	-0.29091474413871765
51	0xbfda8b68c0000000	-0.4147588610649109
52	0xbf88163000000000	-0.011761069297790527
53	0x3fce563c80000000	0.23700672388076782
54	0x3fc3465d80000000	0.150584876537323
55	0x3fd21c9a40000000	0.2829957604408264
56	0xbfd55e6c20000000	-0.33388808369636536
57	0x3fd68f5140000000	0.352497398853302
58	0xbfe55e8480000000	-0.6677877902984619
59	0x3fe5951720000000	0.6744495034217834
60	0xbfe55f46c0000000	-0.6678804159164429
61	0xbfbc8b9f00000000	-0.11150544881820679
62	0x3fe3539020000000	0.603950560092926
63	0x3f7b4cb000000000	0.006664931774139404
64	0xbfe0ba94c0000000	-0.5227760076522827
65	0xbfc6b94d00000000	-0.1775299310684204
66	0x3fca397e00000000	0.2048795223236084
67	0xbfe55e22c0000000	-0.6677411794662476
68	0x3fbbc69900000000	0.10849910974502563
69	0xbfe51a43a0000000	-0.6594560742378235
70	0x3f4f320000000000	0.0009520053863525391
71	0x3fe64a6c20000000	0.6965847611427307
72	0xbfe32145c0000000	-0.5978115797042847
73	0xbfe545bfe0000000	-0.6647643446922302
74	0x3fdd3f6c40000000	0.45699602365493774
75	0x3fce9f6f00000000	0.23924052715301514
76	0xbfe27a8080000000	-0.5774538516998291
77	0x3fe13c7420000000	0.5386295914649963
78	0x3fe1f8e760000000	0.5616337656974792
79	0xbfb3c3ff00000000	-0.07720941305160522
80	0x3fc11f9e00000000	0.13377737998962402
81	0x3fd57e6d40000000	0.33584147691726685
82	0xbfcf9c6ac0000000	-0.24696096777915955
83	0x3fe14b1ba0000000	0.5404184460639954
84	0x3fe1b4dba0000000	0.5533273816108704
85	0xbfcecc22c0000000	-0.2406047284603119
86	0x3fb45b4e00000000	0.07951819896697998
87	0xbfc986c700000000	-0.1994255781173706
88	0x3fbe834700000000	0.11919063329696655
89	0xbf9fa0ec00000000	-0.030887305736541748
90	0xbfd8312ce0000000	-0.3780014216899872
91	0x3fbf272e00000000	0.12169158458709717
92	0x3fc1d35500000000	0.13926184177398682
93	0x3fe1b6c760000000	0.5535618662834167
94	0x3fc575ad00000000	0.16765367984771729
95	0x3fd307a5c0000000	0.2973417639732361
96	0x3fe0459d60000000	0.5084978938102722
97	0xbfc56ed080000000	-0.16744428873062134
98	0x3fe09cc6e0000000	0.5191377997398376
99	0xbfe1f605a0000000	-0.5612819790840149
100	0xbfde0b3f00000000	-0.4694364070892334
101	0xbfe646d440000000	-0.6961461305618286
102	0x3fd5bfc640000000	0.3398299813270569
103	0x3fa4874200000000	0.04009443521499634
104	0xbfc9f07e80000000	-0.20265179872512817
105	0x3fd5c1c2c0000000	0.33995121717453003
106	0x3fe49781e0000000	0.6434945464134216
107	0xbfcff6a240000000	-0.24971416592597961
108	0x3fde7db640000000	0.47642284631729126
109	0xbfb3df3b00000000	-0.07762497663497925
110	0xbfe4053c00000000	-0.6256389617919922
111	0xbfca2cb200000000	-0.20448899269104004
112	0xbfd816eea0000000	-0.3763996660709381
113	0x3fd1145b80000000	0.2668675184249878
114	0x3fd9d3b040000000	0.40354543924331665
115	0x3fd77c3d40000000	0.36695796251296997
116	0xbfe15d84c0000000	-0.5426658391952515
117	0xbfbde26d00000000	-0.11673623323440552
118	0x3fdbafef40000000	0.43261319398880005
119	0xbfa009b400000000	-0.031324028968811035
120	0x3fdd261f40000000	0.4554517865180969
121	0xbfdccfc1e0000000	-0.4501805007457733
122	0xbfdffa7600000000	-0.499661922454834
123	0xbf7b7c4000000000	-0.0067102909088134766
124	0xbfcaef1400000000	-0.21042108535766602
125	0x3faf6d5c00000000	0.06138122081756592
126	0xbfe40d7340000000	-0.6266418695449829
127	0x3fda94b5c0000000	0.4153265357017517
128	0xbfcaf65000000000	-0.21064186096191406
129	0xbfe4008760000000	-0.6250645518302917
130	0x3fc8bf9180000000	0.19334620237350464
131	0x3fc2ee2c00000000	0.14789342880249023
132	0x3fd0075400000000	0.25044727325439453
133	0x3fc94dff00000000	0.19769275188446045
134	0x3fc8066100000000	0.18769466876983643
135	0x3fdce15f40000000	0.4512556195259094
136	0x3fbba7ec00000000	0.10803103446960449
137	0x3fc4e98c80000000	0.16337734460830688
138	0xbfcaa5b740000000	-0.20818224549293518
139	0xbfe229ac00000000	-0.5675868988037109
140	0x3fd26d7c80000000	0.28793251514434814
141	0xbfe65e2040000000	-0.698989987373352
142	0x3fe1073de0000000	0.5321339964866638
143	0x3fdfb0d440000000	0.4951677918434143
144	0x3fce56bc80000000	0.23702198266983032
145	0xbfc4eeb400000000	-0.16353464126586914
146	0xbfa16da600000000	-0.03403967618942261
147	0x3fc5fb4500000000	0.171730637550354
148	0xbfd7b2b3e0000000	-0.3702821433544159
149	0xbfe16c1e40000000	-0.5444480180740356
150	0xbfcc96cfc0000000	-0.22335240244865417
151	0x3fe4ff07e0000000	0.6561316847801208
152	0xbf9eb5e000000000	-0.029990673065185547
153	0x3fb3946700000000	0.07648319005966187
154	0xbfcc5ff280000000	-0.22167807817459106
155	0x3fe675e5e0000000	0.7018918395042419
156	0xbfdfcb6280000000	-0.4967886209487915
157	0x3fd05774c0000000	0.2553378939628601
158	0x3fb36eae00000000	0.07590758800506592
159	0x3fd97e07c0000000	0.39831727743148804
160	0xbfc666ba00000000	-0.17500996589660645
161	0x3fe2e242e0000000	0.5901197791099548
162	0x3fe5126ca0000000	0.6584990620613098
163	0xbfc920e180000000	-0.1963159441947937
164	0x3fddc1ac40000000	0.46494585275650024
165	0x3fe2f23460000000	0.5920659899711609
166	0x3fe202fc60000000	0.5628644824028015
167	0xbfc410cb00000000	-0.1567624807357788
168	0x3fb3dedf00000000	0.07761949300765991
169	0x3fa4e36600000000	0.040797412395477295
170	0xbfb1ec5700000000	-0.07001250982284546
171	0xbfd10bf040000000	-0.26635366678237915
172	0x3fe2c44020000000	0.5864563584327698
173	0xbfd0707640000000	-0.25686413049697876
174	0x3fd499eb40000000	0.32189446687698364
175	0xbfc1146600000000	-0.13343501091003418
176	0x3fc1264980000000	0.13398092985153198
177	0x3fe442e7e0000000	0.6331672072410583
178	0xbfe272f9c0000000	-0.5765351057052612
179	0x3fdc9191c0000000	0.44638484716415405
180	0xbfafa4c000000000	-0.06180381774902344
181	0x3fd21a9340000000	0.2828720211982727
182	0xbfcc0fa900000000	-0.21922791004180908
183	0xbfc5295180000000	-0.1653234362602234
184	0x3fd70216c0000000	0.35950249433517456
185	0xbfcd825e00000000	-0.23054099082946777
186	0xbfd0620ec0000000	-0.25598496198654175
187	0x3fe47a4fa0000000	0.6399305462837219
188	0x3fe4052260000000	0.6256267428398132
189	0xbfe0f6dc20000000	-0.5301342606544495
190	0xbfc2720f00000000	-0.14410579204559326
191	0xbfe5531820000000	-0.6663933396339417
192	0xbfceae8cc0000000	-0.23970183730125427
193	0xbf6edfe000000000	-0.0037688612937927246
194	0x3fadb9ea00000000	0.05805903673171997
195	0xbfca13ed00000000	-0.20373308658599854
196	0xbfe5b433e0000000	-0.6782473921775818
197	0x3fe4ac8ae0000000	0.6460623145103455
198	0xbfd7974fe0000000	-0.36861035227775574
199	0x3fda8a9fc0000000	0.4147109389305115
200	0xbfda4b1aa0000000	-0.4108339846134186
201	0x3fe23748a0000000	0.5692484974861145
202	0x3fd4d111c0000000	0.32526057958602905
203	0xbfe0798c00000000	-0.5148372650146484
204	0xbfaa942600000000	-0.05191153287887573
205	0x3fa6f19000000000	0.04481172561645508
206	0xbfe1b907a0000000	-0.5538366436958313
207	0x3fe3f79ce0000000	0.6239761710166931
208	0xbfd20d9b60000000	-0.2820805013179779
209	0xbfe268e060000000	-0.5753023028373718
210	0x3fe661b620000000	0.6994276642799377
211	0xbfd1f27160000000	-0.28042253851890564
212	0x3fd36744c0000000	0.30317801237106323
213	0x3fdb1552c0000000	0.42317646741867065
214	0xbfde0c89e0000000	-0.46951529383659363
215	0xbfe13efc00000000	-0.5389385223388672
216	0x3fd4bc7c40000000	0.32400423288345337
217	0x3f82200800000000	0.008850157260894775
218	0x3f8c783000000000	0.013901114463806152
219	0xbfc6370e00000000	-0.1735551357269287
220	0x3f91a3f000000000	0.0172269344329834
221	0x3fe0ee1f20000000	0.5290675759315491
222	0x3fd846cdc0000000	0.37932151556015015
223	0xbf8cdc8000000000	-0.014092445373535156
224	0x3fad2fd200000000	0.057005465030670166
225	0xbfcc790d80000000	-0.22244423627853394
226	0xbfdc25cbe0000000	-0.43980690836906433
227	0xbfe14757a0000000	-0.5399587750434875
228	0xbfce854980000000	-0.23844259977340698
229	0xbfd1d2ed40000000	-0.27849894762039185
230	0xbfd7d06ae0000000	-0.3720957934856415
231	0xbfde1cf820000000	-0.4705181419849396
232	0x3fe5b921a0000000	0.6788490414619446
233	0x3fd590de40000000	0.3369670510292053
234	0x3fe22620a0000000	0.5671542286872864
235	0x3fd0d011c0000000	0.26269954442977905
236	0x3fdee4e5c0000000	0.4827207922935486
237	0x3fc9c61180000000	0.20135706663131714
238	0x3fd27def00000000	0.2889363765716553
239	0xbfdedf3160000000	-0.48237261176109314
240	0xbfe461ed60000000	-0.6369540095329285
241	0x3fe6133320000000	0.6898437142372131
242	0xbf87cb9800000000	-0.01161879301071167
243	0x3fe37c1b60000000	0.6088997721672058
244	0xbfe18a6bc0000000	-0.5481470823287964
245	0x3fe407bf20000000	0.6259456276893616
246	0x3fe2eb9760000000	0.591258704662323
247	0x3fce714a00000000	0.23783230781555176
248	0xbfd244b680000000	-0.28544390201568604
249	0xbfcc128e40000000	-0.2193162739276886
250	0x3fe3dd0360000000	0.6207291483879089
251	0x3fe3c42be0000000	0.6176967024803162
252	0x3fd27e8540000000	0.2889721989631653
253	0xbfd5495060000000	-0.3325997292995453
254	0x3fe46272a0000000	0.637017548084259
255	0x3fc8cb8b00000000	0.19371163845062256

encoder_layer.linear1.bias f8 [2048]
0	0x3fc355a680000000	0.1510513424873352
1	0xbfd3358ca0000000	-0.30014339089393616
2	0xbfc9c21300000000	-0.20123517513275146
3	0xbfcb175c80000000	-0.21165043115615845
4	0xbfe0305880000000	-0.505901575088501
5	0x3fe581c9a0000000	0.6720932126045227
6	0x3fe3c1a020000000	0.6173859238624573
7	0xbfe1f9f200000000	-0.5617609024047852
8	0xbfd67d99a0000000	-0.3514160215854645
9	0xbf9919ec00000000	-0.024512946605682373
10	0x3fdca7e540000000	0.44774752855300903
11	0xbfd5da84a0000000	-0.34146228432655334
12	0x3fe5c1c2a0000000	0.6799023747444153
13	0xbfcedc5100000000	-0.2410985231399536
14	0x3fe23b69a0000000	0.5697525143623352
15	0x3fdb78eac0000000	0.4292551875114441
16	0x3fbae22f00000000	0.10501378774642944
17	0xbfddb71a00000000	-0.46430063247680664
18	0xbfe3055480000000	-0.5944006443023682
19	0x3f9d68e000000000	0.028720378875732422
20	0x3fddfddac0000000	0.46861904859542847
21	0x3fe18dfce0000000	0.5485824942588806
22	0xbfd448f860000000	-0.31695374846458435
23	0x3fc6c8f300000000	0.17800748348236084
24	0xbfd6974fc0000000	-0.35298532247543335
25	0x3fe01ea220000000	0.5037394165992737
26	0xbfe31e4280000000	-0.5974438190460205
27	0xbfa7566a00000000	-0.045581161975860596
28	0x3fe696bd20000000	0.7059007287025452
29	0xbfe2ef6160000000	-0.59172123670578
30	0x3fdf4c4ec0000000	0.48903244733810425
31	0x3fe45dd260000000	0.636452853679657
32	0xbfddc16180000000	-0.4649280309677124
33	0x3fe542c720000000	0.6644015908241272
34	0xbfd309f1e0000000	-0.2974819839000702
35	0x3fae25ac00000000	0.058881163597106934
36	0xbfc6fde580000000	-0.1796233057975769
37	0xbfdf751140000000	-0.4915202260017395
38	0xbfe06baf00000000	-0.5131449699401855
39	0x3fe29c6560000000	0.5815913081169128
40	0xbfe1fd5200000000	-0.5621728897094727
41	0xbfb3895100000000	-0.0763140320777893
42	0x3fe50d0d60000000	0.657843291759491
43	0xbfe39a9420000000	-0.6126194596290588
44	0x3fb8a2db00000000	0.09623497724533081
45	0xbfe31f1e00000000	-0.5975484848022461
46	0x3fda9db540000000	0.41587573289871216
47	0xbfe4327a80000000	-0.6311619281768799
48	0x3f8625a800000000	0.010814011096954346
49	0xbfdc6ee9c0000000	-0.444269597530365
50	0x3fce907f00000000	0.23878467082977295
51	0xbfa531ac00000000	-0.041394591331481934
52	0xbfd19fb020000000	-0.27537158131599426
53	0xbfe5312920000000	-0.6622510552406311
54	0x3fe69c4820000000	0.7065773606300354
55	0x3fd659a6c0000000	0.3492218852043152
56	0x3fd8b57fc0000000	0.3860778212547302
57	0xbfe1f45180000000	-0.5610740184783936
58	0x3fd6c311c0000000	0.35565608739852905
59	0xbfd7150160000000	-0.36065706610679626
60	0xbfe2fd9800000000	-0.5934562683105469
61	0x3fe31bc7a0000000	0.5971410870552063
62	0xbfc4127780000000	-0.15681356191635132
63	0x3fe01767a0000000	0.5028570294380188
64	0x3fd7f15140000000	0.374103844165802
65	0xbfc1d7ac00000000	-0.13939428329467773
66	0xbfc8390500000000	-0.18924009799957275
67	0xbfdddb93c0000000	-0.46652692556381226
68	0x3faebe8400000000	0.060047268867492676
69	0x3fce993a00000000	0.23905110359191895
70	0xbfd144f240000000	-0.26983314752578735
71	0xbfe0defae0000000	-0.5272192358970642
72	0xbfda8b4ac0000000	-0.41475170850753784
73	0xbfd391dcc0000000	-0.30577772855758667
74	0xbfcd5bed00000000	-0.22936785221099854
75	0x3fb4d73800000000	0.08140897750854492
76	0xbfd0eb6620000000	-0.26436761021614075
77	0xbfcc598b80000000	-0.22148269414901733
78	0x3fe5cfe9e0000000	0.6816300749778748
79	0xbfcb11ac80000000	-0.2114768624305725
80	0xbfd1a99600000000	-0.27597570419311523
81	0xbfba5c1000000000	-0.1029672622680664
82	0x3f8ce11000000000	0.014101147651672363
83	0xbfd2e524c0000000	-0.295235812664032
84	0xbfdaa5ae20000000	-0.41636231541633606
85	0x3fe02c17e0000000	0.5053824782371521
86	0x3fafdab800000000	0.062215566635131836
87	0xbfdc72d4c0000000	-0.44450873136520386
88	0x3fd1238080000000	0.26779186725616455
89	0x3fd2e874c0000000	0.2954379916191101
90	0x3fe6981460000000	0.7060644030570984
91	0xbfe0d139a0000000	-0.5255401730537415
92	0xbfe0acaec0000000	-0.521079421043396
93	0xbfd5b58060000000	-0.33920297026634216
94	0x3fcffda080000000	0.2499275803565979
95	0x3fd5efb140000000	0.34275466203689575
96	0xbfe355ebe0000000	-0.6042384505271912
97	0xbfe0771880000000	-0.514538049697876
98	0xbfc0355f00000000	-0.12662875652313232
99	0x3fc5c08980000000	0.16993826627731323
100	0x3fd19c9a00000000	0.27518320083618164
101	0xbfe44daf00000000	-0.6344828605651855
102	0x3fdb1c3bc0000000	0.4235982298851013
103	0xbfe210ba00000000	-0.5645418167114258
104	0xbf97573400000000	-0.022793591022491455
105	0xbfb80a7800000000	-0.09390974044799805
106	0xbfc8b9b880000000	-0.19316774606704712
107	0xbfe00e34e0000000	-0.50173419713974
108	0xbfb0950e00000000	-0.06477439403533936
109	0xbfbe360500000000	-0.11801177263259888
110	0x3fe1bc40e0000000	0.5542301535606384
111	0x3fc32e0980000000	0.14984244108200073
112	0xbfe44c4b00000000	-0.6343131065368652
113	0x3fdd78fac0000000	0.4605090022087097
114	0x3fd0a48940000000	0.2600424885749817
115	0xbfe52d6300000000	-0.6617903709411621
116	0x3fd14110c0000000	0.26959627866744995
117	0xbfdf651f80000000	-0.4905470609664917
118	0xbf70578000000000	-0.003989696502685547
119	0xbfe4e6d5a0000000	-0.6531780362129211
120	0x3fe40813a0000000	0.6259859204292297
121	0xbfb0921e00000000	-0.06472957134246826
122	0xbfa6913400000000	-0.04407656192779541
123	0x3fd87132c0000000	0.3819090723991394
124	0xbfc8f98000000000	-0.1951141357421875
125	0xbfc3aa2a00000000	-0.15363049507141113
126	0x3fe083bd60000000	0.5160815119743347
127	0xbfe09c6d20000000	-0.5190950036048889
128	0x3fb0732100000000	0.06425672769546509
129	0xbfdeb41480000000	-0.4797412157058716
130	0x3fe36934e0000000	0.60659259557724
131	0xbfca7ad900000000	-0.20687401294708252
132	0x3fbc277f00000000	0.10997766256332397
133	0xbfe2bc6d20000000	-0.5855012536048889
134	0x3fc531ec80000000	0.16558605432510376
135	0xbfb60f5200000000	-0.08617126941680908
136	0xbfe514d720000000	-0.6587939858436584
137	0xbfd7cc7700000000	-0.3718545436859131
138	0xbfd0e2b980000000	-0.26383817195892334
139	0xbfe2fcbfc0000000	-0.5933531522750854
140	0xbfd87bb840000000	-0.38255125284194946
141	0xbfde3a0200000000	-0.4722905158996582
142	0xbfdc3ee340000000	-0.44133836030960083
143	0xbfe0e63aa0000000	-0.5281041264533997
144	0xbfe3989d80000000	-0.612379789352417
145	0x3fe41b1160000000	0.6283041834831238
146	0x3fe1936120000000	0.5492406487464905
147	0x3fad4ae400000000	0.057211995124816895
148	0xbf5f988000000000	-0.0019284486770629883
149	0x3fd85ec7c0000000	0.38078492879867554
150	0xbfde8d71c0000000	-0.4773830771446228
151	0x3fd6b261c0000000	0.3546375632286072
152	0x3fe5559ca0000000	0.6667006611824036
153	0xbfac7e0c00000000	-0.05564916133880615
154	0xbfbf8b1900000000	-0.12321621179580688
155	0xbfe09802a0000000	-0.5185559391975403
156	0xbfe087a300000000	-0.5165572166442871
157	0x3fe5c68e20000000	0.6804876923561096
158	0x3fc3efff80000000	0.15576165914535522
159	0x3fdc0018c0000000	0.43750590085983276
160	0x3fd9c78f40000000	0.4028051495552063
161	0x3fe5c78be0000000	0.6806086897850037
162	0xbfe4d3d100000000	-0.6508564949035645
163	0xbfd61a5fa0000000	-0.3453597128391266
164	0x3fd8755f40000000	0.3821638226509094
165	0x3fe4a17c20000000	0.644712507724762
166	0x3fda478cc0000000	0.41061705350875854
167	0xbfbffd6000000000	-0.12495994567871094
168	0xbf8f5f8800000000	-0.01531893014907837
169	0xbfdcb75aa0000000	-0.4486910402774811
170	0xbfe1c34ec0000000	-0.5550912618637085
171	0xbfb70d6600000000	-0.09004819393157959
172	0x3fdd2750c0000000	0.45552462339401245
173	0x3fe6580e20000000	0.6982489228248596
174	0x3fe5dbd760000000	0.683086097240448
175	0x3fdbf9c140000000	0.4371188282966614
176	0x3f9460f800000000	0.019901156425476074
177	0xbfe4fabc00000000	-0.6556072235107422
178	0x3fdda29a40000000	0.4630494713783264
179	0xbfd96defe0000000	-0.397335022687912
180	0xbfd14e2a20000000	-0.27039578557014465
181	0xbfc9064200000000	-0.19550347328186035
182	0xbfdc3a7c80000000	-0.44106972217559814
183	0xbfd5f35940000000	-0.3429778218269348
184	0xbfcafa5140000000	-0.210764080286026
185	0xbf8ed54000000000	-0.015055179595947266
186	0xbfae104600000000	-0.05871790647506714
187	0xbfcfe6c4c0000000	-0.24922999739646912
188	0x3fbf2e4100000000	0.1217995285987854
189	0x3fc188f080000000	0.13699156045913696
190	0x3fc2abf500000000	0.14587271213531494
191	0xbfe242b9a0000000	-0.5706451535224915
192	0xbfe41d0dc0000000	-0.6285465955734253
193	0x3fda58f6c0000000	0.4116799235343933
194	0x3fe61a3de0000000	0.6907033324241638
195	0x3fca73b480000000	0.20665603876113892
196	0x3fe0129d20000000	0.5022721886634827
197	0xbfdc431220000000	-0.4415936768054962
198	0x3fa38bfa00000000	0.038177311420440674
199	0xbfc766eb80000000	-0.1828283667564392
200	0xbfd9b9e060000000	-0.4019699990749359
201	0xbfe5e9f480000000	-0.6848089694976807
202	0x3f8296f800000000	0.009077012538909912
203	0xbfe475e2c0000000	-0.6393903493881226
204	0xbfc9e5d600000000	-0.20232653617858887
205	0x3fd8341d40000000	0.3781808018684387
206	0x3fd97267c0000000	0.3976077437400818
207	0xbfe3ade760000000	-0.6149784922599792
208	0x3fdda72640000000	0.46332699060440063
209	0x3fcee90680000000	0.24148637056350708
210	0x3fdc6ff340000000	0.44433289766311646
211	0x3f78be7000000000	0.006040990352630615
212	0xbfe40c10c0000000	-0.6264728307723999
213	0x3fd942d6c0000000	0.39470452070236206
214	0x3fcb367600000000	0.212599515914917
215	0xbfa2bfd400000000	-0.03661978244781494
216	0x3fcd4d8180000000	0.22892779111862183
217	0xbfcaa33100000000	-0.208105206489563
218	0xbfe35dae40000000	-0.6051856279373169
219	0x3fdf77a7c0000000	0.4916781783103943
220	0xbfc8f83e00000000	-0.19507575035095215
221	0xbfd0e321c0000000	-0.2638630270957947
222	0x3fcf750280000000	0.24575835466384888
223	0x3fde281dc0000000	0.47119849920272827
224	0x3fc4707e80000000	0.15968304872512817
225	0xbfbc450100000000	-0.11042791604995728
226	0xbfe2ea60e0000000	-0.5911106467247009
227	0x3fe51b8ea0000000	0.6596139073371887
228	0xbfb576ef00000000	-0.08384603261947632
229	0xbfe1df3260000000	-0.5584957003593445
230	0xbfd1e94d40000000	-0.2798646092414856
231	0x3fce1f9880000000	0.2353392243385315
232	0x3fe52abee0000000	0.661467969417572
233	0x3fd4ee3b40000000	0.32704049348831177
234	0xbfb68c8300000000	-0.08808153867721558
235	0xbfa57f6c00000000	-0.04198777675628662
236	0xbfe291ef20000000	-0.5803142189979553
237	0x3fb05a3600000000	0.06387650966644287
238	0x3fd5af0bc0000000	0.33880895376205444
239	0xbfe62553c0000000	-0.6920565366744995
240	0xbfcb44c980000000	-0.21303671598434448
241	0x3fb861a000000000	0.09523963928222656
242	0x3fe430c560000000	0.6309534907341003
243	0x3fd869be40000000	0.3814540505409241
244	0xbfe4191080000000	-0.6280596256256104
245	0xbfe3e44940000000	-0.6216169595718384
246	0x3fd04b16c0000000	0.25458306074142456
247	0x3fddc86f40000000	0.46535855531692505
248	0xbfe6201b60000000	-0.6914193034172058
249	0x3fa756aa00000000	0.04558306932449341
250	0xbfe316ee80000000	-0.5965492725372314
251	0x3fcd048980000000	0.22670096158981323
252	0x3fe0114d20000000	0.5021119713783264
253	0xbfe4efa460000000	-0.6542531847953796
254	0x3fd52e8f40000000	0.3309667706489563
255	0xbfd1126be0000000	-0.2667493522167206

encoder_layer.linear2.weight f8 [2, 2048]
0	0x3f9660ed20000000	0.02185411937534809
1	0xbf8d14a520000000	-0.014199533499777317
2	0x3f753ec300000000	0.005186807364225388
3	0x3f89794540000000	0.01243833638727665
4	0x3f918c50a0000000	0.017136821523308754
5	0xbf812d2f00000000	-0.008386962115764618
6	0xbf90b32fe0000000	-0.01630854420363903
7	0xbf9033d580000000	-0.01582273095846176
8	0xbf55595400000000	-0.0013030357658863068
9	0xbf7e696940000000	-0.007424746640026569
10	0x3f7b23da80000000	0.006625989452004433
11	0xbf6c363f00000000	-0.0034438353031873703
12	0x3f8f4d20c0000000	0.015283828601241112
13	0x3f5ab9a000000000	0.0016311705112457275
14	0x3f3079d800000000	0.0002514030784368515
15	0x3f867319c0000000	0.010961724445223808
16	0x3f8d6dc3c0000000	0.01436951570212841
17	0xbf865623a0000000	-0.01090648490935564
18	0x3f7931a500000000	0.0061508603394031525
19	0x3f915138a0000000	0.016911396756768227
20	0xbf895b1360000000	-0.012380744330585003
21	0x3f9461aee0000000	0.0199038814753294
22	0xbf93734840000000	-0.01899445429444313
23	0xbf943c3940000000	-0.019760984927415848
24	0x3f9416e9a0000000	0.019618654623627663
25	0xbf890486e0000000	-0.01221566554158926
26	0xbf91330ac0000000	-0.01679627224802971
27	0x3f7d0fb180000000	0.007095044478774071
28	0xbf50f88200000000	-0.0010358113795518875
29	0x3f93c529a0000000	0.01930680312216282
30	0x3f87859ac0000000	0.011485299095511436
31	0xbf8ed6b7a0000000	-0.015057978220283985
32	0x3f941a22e0000000	0.019630951806902885
33	0x3f70cc3900000000	0.004101011902093887
34	0xbf75026b80000000	-0.005129260942339897
35	0xbf95760280000000	-0.020957984030246735
36	0xbf7892ba80000000	-0.005999306216835976
37	0x3f83870d40000000	0.009534934535622597
38	0xbf95353ea0000000	-0.02071092464029789
39	0xbf91def7c0000000	-0.017452117055654526
40	0xbf8f89a880000000	-0.015399280935525894
41	0x3f7147ac00000000	0.004218742251396179
42	0x3f7dde5d80000000	0.007292142137885094
43	0x3f95401b60000000	0.02075236104428768
44	0x3f8a0ff240000000	0.012725727632641792
45	0x3f81403d40000000	0.008423307910561562
46	0xbf95fde1c0000000	-0.021476294845342636
47	0xbf5f35e800000000	-0.0019049420952796936
48	0x3f940f8360000000	0.019590428099036217
49	0x3f8947cfc0000000	0.012344000861048698
50	0xbf91d5b140000000	-0.017416734248399734
51	0xbf8def8120000000	-0.014616974629461765
52	0xbf912f0780000000	-0.01678096503019333
53	0x3f654fe200000000	0.002601567655801773
54	0xbf8cb14320000000	-0.014009975828230381
55	0x3f92e887a0000000	0.018465155735611916
56	0xbf966a8140000000	-0.021890658885240555
57	0xbf94b281c0000000	-0.02021219953894615
58	0xbf6ccf8700000000	-0.003516925498843193
59	0x3f92e3bca0000000	0.018446872010827065
60	0xbf94d669e0000000	-0.02034917287528515
61	0xbf6e2a2d00000000	-0.0036822203546762466
62	0x3f837dbec0000000	0.009517183527350426
63	0x3f92130fe0000000	0.017650840803980827
64	0xbf83713e40000000	-0.009493337944149971
65	0x3f8fe3b640000000	0.015571044757962227
66	0xbf95dfade0000000	-0.021361080929636955
67	0x3f9109e2a0000000	0.01663927175104618
68	0xbf8dbf0380000000	-0.014524485915899277
69	0x3f74b94d00000000	0.005059529095888138
70	0xbf88f0e200000000	-0.012178197503089905
71	0x3f897a3bc0000000	0.012440172955393791
72	0x3f902c0d60000000	0.015793045982718468
73	0xbf3d0ed800000000	-0.0004433896392583847
74	0xbf7633e480000000	-0.005420582368969917
75	0xbf82802560000000	-0.00903348159044981
76	0xbf75c15f00000000	-0.00531136617064476
77	0xbf7f6e7980000000	-0.007673716172575951
78	0x3f92dd4460000000	0.018422191962599754
79	0x3f819f2a00000000	0.008604362607002258
80	0xbf91731c40000000	-0.0170406736433506
81	0x3f93519a60000000	0.018865978345274925
82	0xbf95b2d220000000	-0.021189959719777107
83	0xbf88ab66c0000000	-0.012045672163367271
84	0x3f589b0c00000000	0.0015018098056316376
85	0x3f911343e0000000	0.016675053164362907
86	0x3f8eead040000000	0.015096308663487434
87	0x3f68fb8b00000000	0.0030496325343847275
88	0x3f882268c0000000	0.011784380301833153
89	0xbf7ab3b640000000	-0.0065190428867936134
90	0x3f915e2aa0000000	0.016960779204964638
91	0xbf839ef800000000	-0.009580552577972412
92	0x3f3645b800000000	0.00033984892070293427
93	0xbf9193da80000000	-0.01716557890176773
94	0xbf65d63f00000000	-0.0026656370609998703
95	0x3f808c7300000000	0.008080385625362396
96	0x3f78c69800000000	0.006048768758773804
97	0xbf7eb91880000000	-0.007500739768147469
98	0x3f94e03360000000	0.020386507734656334
99	0xbf713d2800000000	-0.00420871376991272
100	0x3f968c42a0000000	0.02201942540705204
101	0xbf8e802da0000000	-0.014892918057739735
102	0x3f82e44c40000000	0.009224506095051765
103	0xbf61bec900000000	-0.002166168764233589
104	0x3f8a6b5ec0000000	0.012900104746222496
105	0x3f75c01580000000	0.005310138687491417
106	0xbf8e3d1880000000	-0.014764968305826187
107	0x3f90417960000000	0.015874763950705528
108	0x3f80ac8300000000	0.008141539990901947
109	0xbf968a0de0000000	-0.022011009976267815
110	0x3f8c856440000000	0.013926299288868904
111	0xbf8c2a6b40000000	-0.013752782717347145
112	0x3f764fe000000000	0.005447268486022949
113	0x3f7e61ea00000000	0.007417596876621246
114	0x3f92f50ea0000000	0.018512943759560585
115	0x3f95e30720000000	0.02137385495007038
116	0x3f8fd38240000000	0.015540139749646187
117	0x3f8576f440000000	0.010480793192982674
118	0xbf8bfa38e0000000	-0.013660854659974575
119	0xbf925cec20000000	-0.017932595685124397
120	0xbf75dda380000000	-0.00533832423388958
121	0x3f8eddae40000000	0.015071259811520576
122	0xbf90dbb300000000	-0.016463086009025574
123	0xbf8ce95de0000000	-0.014116986654698849
124	0xbf5b8b4e00000000	-0.0016811620444059372
125	0xbf923d2d80000000	-0.017811499536037445
126	0xbf813c2b00000000	-0.008415542542934418
127	0xbf9284aa80000000	-0.01808420568704605
128	0xbf931a0cc0000000	-0.01865405961871147
129	0x3f8f4effc0000000	0.015287397429347038
130	0xbf95ca97e0000000	-0.021280644461512566
131	0x3f81326780000000	0.008396919816732407
132	0xbf94963e80000000	-0.020104385912418365
133	0x3f55b96a00000000	0.0013259444385766983
134	0x3f84582340000000	0.009933734312653542
135	0x3f90d02660000000	0.016419028863310814
136	0x3f9440eb60000000	0.019778897985816002
137	0xbf63bd3000000000	-0.0024095475673675537
138	0x3f94880b60000000	0.02005021832883358
139	0xbf85c76620000000	-0.010634229518473148
140	0x3f73cd4680000000	0.004834437742829323
141	0xbf92102980000000	-0.017639778554439545
142	0x3f6dcfa700000000	0.0036390554159879684
143	0x3f85849bc0000000	0.010506836697459221
144	0x3f55f38c00000000	0.0013398043811321259
145	0x3f957d8fe0000000	0.02098679356276989
146	0xbf7c1393c0000000	-0.0068546077236533165
147	0x3f86137d40000000	0.010779360309243202
148	0x3f94c2bce0000000	0.020274115726351738
149	0x3f8fd49140000000	0.015542158856987953
150	0xbf9210e800000000	-0.017642617225646973
151	0x3f93f79d20000000	0.01949925906956196
152	0xbf903dde00000000	-0.01586100459098816
153	0xbf94aa6d20000000	-0.02018137462437153
154	0xbf8483e280000000	-0.01001717522740364
155	0x3ef5fe0000000000	2.0973384380340576e-05
156	0xbf83acf200000000	-0.009607210755348206
157	0xbf91323fc0000000	-0.016793247312307358
158	0xbf813e47a0000000	-0.00841957051306963
159	0x3f79510880000000	0.006180794909596443
160	0x3f8f2acdc0000000	0.015218360349535942
161	0x3f106a0000000000	6.261467933654785e-05
162	0x3f8a5cd440000000	0.012872369959950447
163	0x3f883a0640000000	0.011829422786831856
164	0x3f94b6ef60000000	0.020229091867804527
165	0x3f856a2fc0000000	0.010456440970301628
166	0xbf91249480000000	-0.016741104423999786
167	0xbf868aa9a0000000	-0.011006665416061878
168	0x3f7a1cb480000000	0.006375031545758247
169	0x3f93dec320000000	0.0194044578820467
170	0xbf55100a00000000	-0.0012855622917413712
171	0x3f87ba1140000000	0.011585364118218422
172	0x3f8b4d1740000000	0.013330632820725441
173	0x3f88f6c9c0000000	0.012189460918307304
174	0x3f6baaa600000000	0.0033772699534893036
175	0x3f88e93440000000	0.012163551524281502
176	0xbf759dc300000000	-0.005277406424283981
177	0x3f64022d00000000	0.0024424437433481216
178	0x3f902cae20000000	0.01579544134438038
179	0xbf75336f00000000	-0.005176004022359848
180	0xbf5959ec00000000	-0.0015473179519176483
181	0x3f3c467000000000	0.0004314444959163666
182	0x3f6eae6e00000000	0.003745283931493759
183	0x3f6f6a1200000000	0.0038347579538822174
184	0x3f8b71e9c0000000	0.013400865718722343
185	0xbf5b660c00000000	-0.0016722790896892548
186	0x3f81ab0980000000	0.008627008646726608
187	0x3f7d83d280000000	0.007205793634057045
188	0x3f950784a0000000	0.02053649164736271
189	0xbf82884e80000000	-0.009049046784639359
190	0x3f95a1cba0000000	0.021125013008713722
191	0xbf8c6a80c0000000	-0.013875013217329979
192	0xbf67bb3b00000000	-0.002896895632147789
193	0xbf940eefa0000000	-0.019588226452469826
194	0x3f91bf94e0000000	0.01733238808810711
195	0xbf5029dc00000000	-0.0009865425527095795
196	0xbf7a997d80000000	-0.006494035944342613
197	0xbf55fece00000000	-0.0013424884527921677
198	0xbf90eb4d60000000	-0.01652260683476925
199	0x3f828505c0000000	0.009042782709002495
200	0x3f7b629b00000000	0.006685834378004074
201	0xbf941d36c0000000	-0.019642692059278488
202	0xbf933d1dc0000000	-0.018787827342748642
203	0x3f96450720000000	0.02174769528210163
204	0xbf8af76f00000000	-0.013167254626750946
205	0x3f842c8540000000	0.00985054112970829
206	0x3f7e5aa600000000	0.007410667836666107
207	0xbf6116cb00000000	-0.0020860638469457626
208	0xbf8b3bd580000000	-0.01329771801829338
209	0x3f9586c960000000	0.02102198265492916
210	0xbf90712ac0000000	-0.016056697815656662
211	0xbf79d8c080000000	-0.006310226395726204
212	0xbf94c24d60000000	-0.020272454246878624
213	0xbf7abc4900000000	-0.006527218967676163
214	0xbf9170c4a0000000	-0.01703173853456974
215	0xbf8d42c200000000	-0.014287486672401428
216	0xbf5055ca00000000	-0.0009970162063837051
217	0x3f8f534b40000000	0.015295589342713356
218	0xbf8c531a80000000	-0.013830382376909256
219	0x3f8648aa40000000	0.010880785062909126
220	0x3f95858260000000	0.021017109975218773
221	0x3f8aa77ec0000000	0.013014784082770348
222	0xbf6480d300000000	-0.0025028344243764877
223	0xbf43fbf800000000	-0.0006098710000514984
224	0xbf93b80f60000000	-0.019256820902228355
225	0x3f627ebd00000000	0.0022576991468667984
226	0xbf8413dfa0000000	-0.009803530760109425
227	0x3f773c9480000000	0.005673008039593697
228	0x3f6df37800000000	0.003656134009361267
229	0x3f90e329e0000000	0.016491560265421867
230	0x3f5a66de00000000	0.001611439511179924
231	0xbf6ad90900000000	-0.003277318552136421
232	0xbf920d0420000000	-0.01762777753174305
233	0xbf8b3fd0c0000000	-0.013305312022566795
234	0x3f9218ab20000000	0.017672227695584297
235	0x3f6068a200000000	0.0020030178129673004
236	0x3f6696a000000000	0.0027573704719543457
237	0x3f87d9fac0000000	0.011646231636404991
238	0x3f83004140000000	0.00927782990038395
239	0xbf90966ce0000000	-0.01619882695376873
240	0xbf938c81c0000000	-0.0190906785428524
241	0x3f8cc92cc0000000	0.014055585488677025
242	0xbf87179140000000	-0.01127541996538639
243	0xbf83053a20000000	-0.009287313558161259
244	0xbf93d27c20000000	-0.019357623532414436
245	0x3f76837c00000000	0.005496487021446228
246	0x3f93b10d60000000	0.019230088219046593
247	0xbf7e1c7780000000	-0.007351366803050041
248	0xbf957febc0000000	-0.020995792001485825
249	0xbf843c4560000000	-0.009880582801997662
250	0x3f82ba6f00000000	0.009144656360149384
251	0xbf7dda3f40000000	-0.00728821475058794
252	0x3f899ab040000000	0.012502076104283333
253	0x3f94c9a5a0000000	0.020300472155213356
254	0x3f80681700000000	0.00801103562116623
255	0x3f934660e0000000	0.018823159858584404

encoder_layer.linear2.bias f8 [2]
0	0x3f912f4be0000000	0.016781983897089958
1	0xbf832a1fa0000000	-0.009357688017189503

encoder_layer.norm1.weight f8 [2]
0	0x3ff0000000000000	1.0
1	0x3ff0000000000000	1.0

encoder_layer.norm1.bias f8 [2]
0	0x0000000000000000	0.0
1	0x0000000000000000	0.0

encoder_layer.norm2.weight f8 [2]
0	0x3ff0000000000000	1.0
1	0x3ff0000000000000	1.0

encoder_layer.norm2.bias f8 [2]
0	0x0000000000000000	0.0
1	0x0000000000000000	0.0

transformer_encoder.layers.0.self_attn.in_proj_weight f8 [6, 2]
0	0x3fd812c140000000	0.3761447072029114
1	0xbfb475da00000000	-0.07992327213287354
2	0x3fe1dca820000000	0.5581856369972229
3	0x3fba6a1800000000	0.10318136215209961
4	0x3fe7210320000000	0.7227798104286194
5	0xbfae2bde00000000	-0.05892843008041382
6	0xbfd80d0d20000000	-0.3757965862751007
7	0x3fe55554a0000000	0.6666663289070129
8	0xbfa4eb3a00000000	-0.040857136249542236
9	0x3fd50d0bc0000000	0.32892125844955444
10	0x3f9d66c400000000	0.028712332248687744
11	0xbfe2aa2c20000000	-0.5832729935646057

transformer_encoder.layers.0.self_attn.in_proj_bias f8 [6]
0	0x3b7c563cb4fb1381	3.750352698883843e-22
1	0xbba7ec1b108eed39	-2.5328707609875957e-21
2	0xb83467c011b466b6	-5.996571223310808e-38
3	0xb870d99d9149e50c	-7.922860390201162e-37
4	0x3ce501dfba751d96	2.3322810431484164e-15
5	0x3d1266b00403bf8c	1.6343480601014344e-14

transformer_encoder.layers.0.self_attn.out_proj.weight f8 [2, 2]
0	0xbfde4ee9a0000000	-0.4735664427280426
1	0xbfd6997760000000	-0.35311684012413025
2	0xbfd5851960000000	-0.3362487256526947
3	0x3fe37e0fa0000000	0.6091383099555969

transformer_encoder.layers.0.self_attn.out_proj.bias f8 [2]
0	0xbd131f7758c3e10a	-1.6984560279732564e-14
1	0x3d131f7758c3e10b	1.6984560279732567e-14

transformer_encoder.layers.0.linear1.weight f8 [2048, 2]
0	0xbfcfc09a00000000	-0.24806523323059082
1	0xbfcbb2bec0000000	-0.2163923680782318
2	0xbfd87fb940000000	-0.38279563188552856
3	0x3fa87d6200000000	0.047831594944000244
4	0x3fe68bf1e0000000	0.7045831084251404
5	0xbfcaef61c0000000	-0.2104303538799286
6	0x3fdf3a9440000000	0.4879503846168518
7	0xbfe44ca520000000	-0.6343560814857483
8	0x3f58240000000000	0.0014734268188476562
9	0xbfdea87780000000	-0.47903239727020264
10	0x3fe0010020000000	0.5001221299171448
11	0x3fd50110c0000000	0.32819002866744995
12	0x3fd8d2bdc0000000	0.3878626227378845
13	0xbfdeb8e060000000	-0.4800339639186859
14	0xbfe4522140000000	-0.6350256204605103
15	0xbfe43416c0000000	-0.6313585042953491
16	0x3fd42ce8c0000000	0.3152410387992859
17	0x3fdca18540000000	0.4473584294319153
18	0xbfe3d5b4a0000000	-0.6198371052742004
19	0x3fe5e069a0000000	0.6836441159248352
20	0xbfe53567c0000000	-0.6627691984176636
21	0x3fd4d6cdc0000000	0.32561057806015015
22	0x3fe10e1b60000000	0.5329720377922058
23	0xbfbc879d00000000	-0.11144429445266724
24	0x3fe5e9b0a0000000	0.6847766041755676
25	0x3fc179ca00000000	0.13652920722961426
26	0xbfe475e040000000	-0.639389157295227
27	0xbfe3a3b100000000	-0.613731861114502
28	0xbfd8785940000000	-0.3823454976081848
29	0xbfdbec5d60000000	-0.4363015592098236
30	0x3fdfcd4ac0000000	0.49690502882003784
31	0x3fccfaa280000000	0.226398766040802
32	0x3fe09093e0000000	0.5176486372947693
33	0x3f63f72000000000	0.0024371743202209473
34	0x3fb3100b00000000	0.07446354627609253
35	0xbfd01e4fe0000000	-0.25185009837150574
36	0xbfcb21bd00000000	-0.2119671106338501
37	0xbfe685edc0000000	-0.7038487195968628
38	0x3fcc55c500000000	0.2213674783706665
39	0xbfb201a100000000	-0.07033735513687134
40	0x3fa4033600000000	0.039086997509002686
41	0x3fcacecd80000000	0.20943611860275269
42	0x3fd6faafc0000000	0.3590506911277771
43	0xbfe3d1d1c0000000	-0.6193627119064331
44	0xbfd27f7cc0000000	-0.2890312075614929
45	0xbfd886fac0000000	-0.3832384943962097
46	0xbfe4108d20000000	-0.6270204186439514
47	0xbfd4226a80000000	-0.3146005868911743
48	0xbfca95abc0000000	-0.20769259333610535
49	0x3facb66800000000	0.05607914924621582
50	0xbfd29e58e0000000	-0.29091474413871765
51	0xbfda8b68c0000000	-0.4147588610649109
52	0xbf88163000000000	-0.011761069297790527
53	0x3fce563c80000000	0.23700672388076782
54	0x3fc3465d80000000	0.150584876537323
55	0x3fd21c9a40000000	0.2829957604408264
56	0xbfd55e6c20000000	-0.33388808369636536
57	0x3fd68f5140000000	0.352497398853302
58	0xbfe55e8480000000	-0.6677877902984619
59	0x3fe5951720000000	0.6744495034217834
60	0xbfe55f46c0000000	-0.6678804159164429
61	0xbfbc8b9f00000000	-0.11150544881820679
62	0x3fe3539020000000	0.603950560092926
63	0x3f7b4cb000000000	0.006664931774139404
64	0xbfe0ba94c0000000	-0.5227760076522827
65	0xbfc6b94d00000000	-0.1775299310684204
66	0x3fca397e00000000	0.2048795223236084
67	0xbfe55e22c0000000	-0.6677411794662476
68	0x3fbbc69900000000	0.10849910974502563
69	0xbfe51a43a0000000	-0.6594560742378235
70	0x3f4f320000000000	0.0009520053863525391
71	0x3fe64a6c20000000	0.6965847611427307
72	0xbfe32145c0000000	-0.5978115797042847
73	0xbfe545bfe0000000	-0.6647643446922302
74	0x3fdd3f6c40000000	0.45699602365493774
75	0x3fce9f6f00000000	0.23924052715301514
76	0xbfe27a8080000000	-0.5774538516998291
77	0x3fe13c7420000000	0.5386295914649963
78	0x3fe1f8e760000000	0.5616337656974792
79	0xbfb3c3ff00000000	-0.07720941305160522
80	0x3fc11f9e00000000	0.13377737998962402
81	0x3fd57e6d40000000	0.33584147691726685
82	0xbfcf9c6ac0000000	-0.24696096777915955
83	0x3fe14b1ba0000000	0.5404184460639954
84	0x3fe1b4dba0000000	0.5533273816108704
85	0xbfcecc22c0000000	-0.2406047284603119
86	0x3fb45b4e00000000	0.07951819896697998
87	0xbfc986c700000000	-0.1994255781173706
88	0x3fbe834700000000	0.11919063329696655
89	0xbf9fa0ec00000000	-0.030887305736541748
90	0xbfd8312ce0000000	-0.3780014216899872
91	0x3fbf272e00000000	0.12169158458709717
92	0x3fc1d35500000000	0.13926184177398682
93	0x3fe1b6c760000000	0.5535618662834167
94	0x3fc575ad00000000	0.16765367984771729
95	0x3fd307a5c0000000	0.2973417639732361
96	0x3fe0459d60000000	0.5084978938102722
97	0xbfc56ed080000000	-0.16744428873062134
98	0x3fe09cc6e0000000	0.5191377997398376
99	0xbfe1f605a0000000	-0.5612819790840149
100	0xbfde0b3f00000000	-0.4694364070892334
101	0xbfe646d440000000	-0.6961461305618286
102	0x3fd5bfc640000000	0.3398299813270569
103	0x3fa4874200000000	0.04009443521499634
104	0xbfc9f07e80000000	-0.20265179872512817
105	0x3fd5c1c2c0000000	0.33995121717453003
106	0x3fe49781e0000000	0.6434945464134216
107	0xbfcff6a240000000	-0.24971416592597961
108	0x3fde7db640000000	0.47642284631729126
109	0xbfb3df3b00000000	-0.07762497663497925
110	0xbfe4053c00000000	-0.6256389617919922
111	0xbfca2cb200000000	-0.20448899269104004
112	0xbfd816eea0000000	-0.3763996660709381
113	0x3fd1145b80000000	0.2668675184249878
114	0x3fd9d3b040000000	0.40354543924331665
115	0x3fd77c3d40000000	0.36695796251296997
116	0xbfe15d84c0000000	-0.5426658391952515
117	0xbfbde26d00000000	-0.11673623323440552
118	0x3fdbafef40000000	0.43261319398880005
119	0xbfa009b400000000	-0.031324028968811035
120	0x3fdd261f40000000	0.4554517865180969
121	0xbfdccfc1e0000000	-0.4501805007457733
122	0xbfdffa7600000000	-0.499661922454834
123	0xbf7b7c4000000000	-0.0067102909088134766
124	0xbfcaef1400000000	-0.21042108535766602
125	0x3faf6d5c00000000	0.06138122081756592
126	0xbfe40d7340000000	-0.6266418695449829
127	0x3fda94b5c0000000	0.4153265357017517
128	0xbfcaf65000000000	-0.21064186096191406
129	0xbfe4008760000000	-0.6250645518302917
130	0x3fc8bf9180000000	0.19334620237350464
131	0x3fc2ee2c00000000	0.14789342880249023
132	0x3fd0075400000000	0.25044727325439453
133	0x3fc94dff00000000	0.19769275188446045
134	0x3fc8066100000000	0.18769466876983643
135	0x3fdce15f40000000	0.4512556195259094
136	0x3fbba7ec00000000	0.10803103446960449
137	0x3fc4e98c80000000	0.16337734460830688
138	0xbfcaa5b740000000	-0.20818224549293518
139	0xbfe229ac00000000	-0.5675868988037109
140	0x3fd26d7c80000000	0.28793251514434814
141	0xbfe65e2040000000	-0.698989987373352
142	0x3fe1073de0000000	0.5321339964866638
143	0x3fdfb0d440000000	0.4951677918434143
144	0x3fce56bc80000000	0.23702198266983032
145	0xbfc4eeb400000000	-0.16353464126586914
146	0xbfa16da600000000	-0.03403967618942261
147	0x3fc5fb4500000000	0.171730637550354
148	0xbfd7b2b3e0000000	-0.3702821433544159
149	0xbfe16c1e40000000	-0.5444480180740356
150	0xbfcc96cfc0000000	-0.22335240244865417
151	0x3fe4ff07e0000000	0.6561316847801208
152	0xbf9eb5e000000000	-0.029990673065185547
153	0x3fb3946700000000	0.07648319005966187
154	0xbfcc5ff280000000	-0.22167807817459106
155	0x3fe675e5e0000000	0.7018918395042419
156	0xbfdfcb6280000000	-0.4967886209487915
157	0x3fd05774c0000000	0.2553378939628601
158	0x3fb36eae00000000	0.07590758800506592
159	0x3fd97e07c0000000	0.39831727743148804
160	0xbfc666ba00000000	-0.17500996589660645
161	0x3fe2e242e0000000	0.5901197791099548
162	0x3fe5126ca0000000	0.6584990620613098
163	0xbfc920e180000000	-0.1963159441947937
164	0x3fddc1ac40000000	0.46494585275650024
165	0x3fe2f23460000000	0.5920659899711609
166	0x3fe202fc60000000	0.5628644824028015
167	0xbfc410cb00000000	-0.1567624807357788
168	0x3fb3dedf00000000	0.07761949300765991
169	0x3fa4e36600000000	0.040797412395477295
170	0xbfb1ec5700000000	-0.07001250982284546
171	0xbfd10bf040000000	-0.26635366678237915
172	0x3fe2c44020000000	0.5864563584327698
173	0xbfd0707640000000	-0.25686413049697876
174	0x3fd499eb40000000	0.32189446687698364
175	0xbfc1146600000000	-0.13343501091003418
176	0x3fc1264980000000	0.13398092985153198
177	0x3fe442e7e0000000	0.6331672072410583
178	0xbfe272f9c0000000	-0.5765351057052612
179	0x3fdc9191c0000000	0.44638484716415405
180	0xbfafa4c000000000	-0.06180381774902344
181	0x3fd21a9340000000	0.2828720211982727
182	0xbfcc0fa900000000	-0.21922791004180908
183	0xbfc5295180000000	-0.1653234362602234
184	0x3fd70216c0000000	0.35950249433517456
185	0xbfcd825e00000000	-0.23054099082946777
186	0xbfd0620ec0000000	-0.25598496198654175
187	0x3fe47a4fa0000000	0.6399305462837219
188	0x3fe4052260000000	0.6256267428398132
189	0xbfe0f6dc20000000	-0.5301342606544495
190	0xbfc2720f00000000	-0.14410579204559326
191	0xbfe5531820000000	-0.6663933396339417
192	0xbfceae8cc0000000	-0.23970183730125427
193	0xbf6edfe000000000	-0.0037688612937927246
194	0x3fadb9ea00000000	0.05805903673171997
195	0xbfca13ed00000000	-0.20373308658599854
196	0xbfe5b433e0000000	-0.6782473921775818
197	0x3fe4ac8ae0000000	0.6460623145103455
198	0xbfd7974fe0000000	-0.36861035227775574
199	0x3fda8a9fc0000000	0.4147109389305115
200	0xbfda4b1aa0000000	-0.4108339846134186
201	0x3fe23748a0000000	0.5692484974861145
202	0x3fd4d111c0000000	0.32526057958602905
203	0xbfe0798c00000000	-0.5148372650146484
204	0xbfaa942600000000	-0.05191153287887573
205	0x3fa6f19000000000	0.04481172561645508
206	0xbfe1b907a0000000	-0.5538366436958313
207	0x3fe3f79ce0000000	0.6239761710166931
208	0xbfd20d9b60000000	-0.2820805013179779
209	0xbfe268e060000000	-0.5753023028373718
210	0x3fe661b620000000	0.6994276642799377
211	0xbfd1f27160000000	-0.28042253851890564
212	0x3fd36744c0000000	0.30317801237106323
213	0x3fdb1552c0000000	0.42317646741867065
214	0xbfde0c89e0000000	-0.46951529383659363
215	0xbfe13efc00000000	-0.5389385223388672
216	0x3fd4bc7c40000000	0.32400423288345337
217	0x3f82200800000000	0.008850157260894775
218	0x3f8c783000000000	0.013901114463806152
219	0xbfc6370e00000000	-0.1735551357269287
220	0x3f91a3f000000000	0.0172269344329834
221	0x3fe0ee1f20000000	0.5290675759315491
222	0x3fd846cdc0000000	0.37932151556015015
223	0xbf8cdc8000000000	-0.014092445373535156
224	0x3fad2fd200000000	0.057005465030670166
225	0xbfcc790d80000000	-0.22244423627853394
226	0xbfdc25cbe0000000	-0.43980690836906433
227	0xbfe14757a0000000	-0.5399587750434875
228	0xbfce854980000000	-0.23844259977340698
229	0xbfd1d2ed40000000	-0.27849894762039185
230	0xbfd7d06ae0000000	-0.3720957934856415
231	0xbfde1cf820000000	-0.4705181419849396
232	0x3fe5b921a0000000	0.6788490414619446
233	0x3fd590de40000000	0.3369670510292053
234	0x3fe22620a0000000	0.5671542286872864
235	0x3fd0d011c0000000	0.26269954442977905
236	0x3fdee4e5c0000000	0.4827207922935486
237	0x3fc9c61180000000	0.20135706663131714
238	0x3fd27def00000000	0.2889363765716553
239	0xbfdedf3160000000	-0.48237261176109314
240	0xbfe461ed60000000	-0.6369540095329285
241	0x3fe6133320000000	0.6898437142372131
242	0xbf87cb9800000000	-0.01161879301071167
243	0x3fe37c1b60000000	0.6088997721672058
244	0xbfe18a6bc0000000	-0.5481470823287964
245	0x3fe407bf20000000	0.6259456276893616
246	0x3fe2eb9760000000	0.591258704662323
247	0x3fce714a00000000	0.23783230781555176
248	0xbfd244b680000000	-0.28544390201568604
249	0xbfcc128e40000000	-0.2193162739276886
250	0x3fe3dd0360000000	0.6207291483879089
251	0x3fe3c42be0000000	0.6176967024803162
252	0x3fd27e8540000000	0.2889721989631653
253	0xbfd5495060000000	-0.3325997292995453
254	0x3fe46272a0000000	0.637017548084259
255	0x3fc8cb8b00000000	0.19371163845062256
